…
        min_scale: 0.3
        max_scale: 1
        min_aspect_ratio: 0.5
        max_aspect_ratio: 2
      }
      sample_constraint {
        min_jaccard_overlap: 0.9
      }
      max_sample: 1
      max_trials: 50
    }
    batch_sampler {
      sampler {
        min_scale: 0.3
        max_scale: 1
        min_aspect_ratio: 0.5
        max_aspect_ratio: 2
      }
      sample_constraint {
        max_jaccard_overlap: 1
      }
      max_sample: 1
      max_trials: 50
    }
    label_map_file: "/mnt/mfs3/zhongchong/task-face/labelmap.prototxt"
  }
}
layer {
  name: "conv1"
  type: "Convolution"
  bottom: "data"
  top: "conv1"
  param {
    lr_mult: 1
    decay_mult: 1
  }
  convolution_param {
    num_output: 64
    bias_term: false
    pad: 3
    kernel_size: 7
    stride: 2
    weight_filler {
      type: "gaussian"
      std: 0.01
    }
  }
}
layer {
  name: "bn_conv1"
  type: "BatchNorm"
  bottom: "conv1"
  top: "conv1"
  batch_norm_param {
    moving_average_fraction: 0.999
    eps: 0.001
  }
}
layer {
  name: "scale_conv1"
  type: "Scale"
  bottom: "conv1"
  top: "conv1"
  param {
    lr_mult: 1
    decay_mult: 0
  }
  param {
    lr_mult: 1
    decay_mult: 0
  }
  scale_param {
    filler {
      type: "constant"
      value: 1
    }
    bias_term: true
    bias_filler {
      type: "constant"
      value: 0
    }
  }
}
layer {
  name: "conv1_relu"
  type: "ReLU"
  bottom: "conv1"
  top: "conv1"
}
layer {
  name: "pool1"
  type: "Pooling"
  bottom: "conv1"
  top: "pool1"
  pooling_param {
    pool: MAX
    kernel_size: 3
    stride: 2
  }
}
layer {
  name: "res2a_branch1"
  type: "Convolution"
  bottom: "pool1"
  top: "res2a_branch1"
  param {
    lr_mult: 1
    decay_mult: 1
  }
  convolution_param {
    num_output: 64
    bias_term: false
    pad: 0
    kernel_size: 1
    stride: 1
    weight_filler {
      type: "gaussian"
      std: 0.01
    }
  }
}
layer {
  name: "bn2a_branch1"
  type: "BatchNorm"
  bottom: "res2a_branch1"
  top: "res2a_branch1"
  batch_norm_param {
    moving_average_fraction: 0.999
    eps: 0.001
  }
}
layer {
  name: "scale2a_branch1"
  type: "Scale"
  bottom: "res2a_branch1"
  top: "res2a_branch1"
  param {
    lr_mult: 1
    decay_mult: 0
  }
  param {
    lr_mult: 1
    decay_mult: 0
  }
  scale_param {
    filler {
      type: "constant"
      value: 1
    }
    bias_term: true
    bias_filler {
      type: "constant"
      value: 0
    }
  }
}
layer {
  name: "res2a_branch2a"
  type: "Convolution"
  bottom: "pool1"
  top: "res2a_branch2a"
  param {
    lr_mult: 1
    decay_mult: 1
  }
  convolution_param {
    num_output: 64
    bias_term: false
    pad: 1
    kernel_size: 3
    stride: 1
    weight_filler {
      type: "gaussian"
      std: 0.01
    }
  }
}
layer {
  name: "bn2a_branch2a"
  type: "BatchNorm"
  bottom: "res2a_branch2a"
  top: "res2a_branch2a"
  batch_norm_param {
    moving_average_fraction: 0.999
    eps: 0.001
  }
}
layer {
  name: "scale2a_branch2a"
  type: "Scale"
  bottom: "res2a_branch2a"
  top: "res2a_branch2a"
  param {
    lr_mult: 1
    decay_mult: 0
  }
  param {
    lr_mult: 1
    decay_mult: 0
  }
  scale_param {
    filler {
      type: "constant"
      value: 1
    }
    bias_term: true
    bias_filler {
      type: "constant"
      value: 0
    }
  }
}
layer {
  name: "res2a_branch2a_relu"
  type: "ReLU"
  bottom: "res2a_branch2a"
  top: "res2a_branch2a"
}
layer {
  name: "res2a_branch2b"
  type: "Convolution"
  bottom: "res2a_branch2a"
  top: "res2a_branch2b"
  param {
    lr_mult: 1
    decay_mult: 1
  }
  convolution_param {
    num_output: 64
    bias_term: false
    pad: 1
    kernel_size: 3
    stride: 1
    weight_filler {
      type: "gaussian"
      std: 0.01
    }
  }
}
layer {
  name: "bn2a_branch2b"
  type: "BatchNorm"
  bottom: "res2a_branch2b"
  top: "res2a_branch2b"
  batch_norm_param {
    moving_average_fraction: 0.999
    eps: 0.001
  }
}
layer {
  name: "scale2a_branch2b"
  type: "Scale"
  bottom: "res2a_branch2b"
  top: "res2a_branch2b"
  param {
    lr_mult: 1
    decay_mult: 0
  }
  param {
    lr_mult: 1
    decay_mult: 0
  }
  scale_param {
    filler {
      type: "constant"
      value: 1
    }
    bias_term: true
    bias_filler {
      type: "constant"
      value: 0
    }
  }
}
layer {
  name: "res2a"
  type: "Eltwise"
  bottom: "res2a_branch1"
  bottom: "res2a_branch2b"
  top: "res2a"
}
layer {
  name: "res2a_relu"
  type: "ReLU"
  bottom: "res2a"
  top: "res2a"
}
layer {
  name: "res2b_branch2a"
  type: "Convolution"
  bottom: "res2a"
  top: "res2b_branch2a"
  param {
    lr_mult: 1
    decay_mult: 1
  }
  convolution_param {
    num_output: 64
    bias_term: false
    pad: 1
    kernel_size: 3
    stride: 1
    weight_filler {
      type: "gaussian"
      std: 0.01
    }
  }
}
layer {
  name: "bn2b_branch2a"
  type: "BatchNorm"
  bottom: "res2b_branch2a"
  top: "res2b_branch2a"
  batch_norm_param {
    moving_average_fraction: 0.999
    eps: 0.001
  }
}
layer {
  name: "scale2b_branch2a"
  type: "Scale"
  bottom: "res2b_branch2a"
  top: "res2b_branch2a"
  param {
    lr_mult: 1
    decay_mult: 0
  }
  param {
    lr_mult: 1
    decay_mult: 0
  }
  scale_param {
    filler {
      type: "constant"
      value: 1
    }
    bias_term: true
    bias_filler {
      type: "constant"
      value: 0
    }
  }
}
layer {
  name: "res2b_branch2a_relu"
  type: "ReLU"
  bottom: "res2b_branch2a"
  top: "res2b_branch2a"
}
layer {
  name: "res2b_branch2b"
  type: "Convolution"
  bottom: "res2b_branch2a"
  top: "res2b_branch2b"
  param {
    lr_mult: 1
    decay_mult: 1
  }
  convolution_param {
    num_output: 64
    bias_term: false
    pad: 1
    kernel_size: 3
    stride: 1
    weight_filler {
      type: "gaussian"
      std: 0.01
    }
  }
}
layer {
  name: "bn2b_branch2b"
  type: "BatchNorm"
  bottom: "res2b_branch2b"
  top: "res2b_branch2b"
  batch_norm_param {
    moving_average_fraction: 0.999
    eps: 0.001
  }
}
layer {
  name: "scale2b_branch2b"
  type: "Scale"
  bottom: "res2b_branch2b"
  top: "res2b_branch2b"
  param {
    lr_mult: 1
    decay_mult: 0
  }
  param {
    lr_mult: 1
    decay_mult: 0
  }
  scale_param {
    filler {
      type: "constant"
      value: 1
    }
    bias_term: true
    bias_filler {
      type: "constant"
      value: 0
    }
  }
}
layer {
  name: "res2b"
  type: "Eltwise"
  bottom: "res2a"
  bottom: "res2b_branch2b"
  top: "res2b"
}
layer {
  name: "res2b_relu"
  type: "ReLU"
  bottom: "res2b"
  top: "res2b"
}
layer {
  name: "res3a_branch1"
  type: "Convolution"
  bottom: "res2b"
  top: "res3a_branch1"
  param {
    lr_mult: 1
    decay_mult: 1
  }
  convolution_param {
    num_output: 128
    bias_term: false
    pad: 0
    kernel_size: 1
    stride: 2
    weight_filler {
      type: "gaussian"
      std: 0.01
    }
  }
}
layer {
  name: "bn3a_branch1"
  type: "BatchNorm"
  bottom: "res3a_branch1"
  top: "res3a_branch1"
  batch_norm_param {
    moving_average_fraction: 0.999
    eps: 0.001
  }
}
layer {
  name: "scale3a_branch1"
  type: "Scale"
  bottom: "res3a_branch1"
  top: "res3a_branch1"
  param {
    lr_mult: 1
    decay_mult: 0
  }
  param {
    lr_mult: 1
    decay_mult: 0
  }
  scale_param {
    filler {
      type: "constant"
      value: 1
    }
    bias_term: true
    bias_filler {
      type: "constant"
      value: 0
    }
  }
}
layer {
  name: "res3a_branch2a"
  type: "Convolution"
  bottom: "res2b"
  top: "res3a_branch2a"
  param {
    lr_mult: 1
    decay_mult: 1
  }
  convolution_param {
    num_output: 128
    bias_term: false
    pad: 1
    kernel_size: 3
    stride: 2
    weight_filler {
      type: "gaussian"
      std: 0.01
    }
  }
}
layer {
  name: "bn3a_branch2a"
  type: "BatchNorm"
  bottom: "res3a_branch2a"
  top: "res3a_branch2a"
  batch_norm_param {
    moving_average_fraction: 0.999
    eps: 0.001
  }
}
layer {
  name: "scale3a_branch2a"
  type: "Scale"
  bottom: "res3a_branch2a"
  top: "res3a_branch2a"
  param {
    lr_mult: 1
    decay_mult: 0
  }
  param {
    lr_mult: 1
    decay_mult: 0
  }
  scale_param {
    filler {
      type: "constant"
      value: 1
    }
    bias_term: true
    bias_filler {
      type: "constant"
      value: 0
    }
  }
}
layer {
  name: "res3a_branch2a_relu"
  type: "ReLU"
  bottom: "res3a_branch2a"
  top: "res3a_branch2a"
}
layer {
  name: "res3a_branch2b"
  type: "Convolution"
  bottom: "res3a_branch2a"
  top: "res3a_branch2b"
  param {
    lr_mult: 1
    decay_mult: 1
  }
  convolution_param {
    num_output: 128
    bias_term: false
    pad: 1
    kernel_size: 3
    stride: 1
    weight_filler {
      type: "gaussian"
      std: 0.01
    }
  }
}
layer {
  name: "bn3a_branch2b"
  type: "BatchNorm"
  bottom: "res3a_branch2b"
  top: "res3a_branch2b"
  batch_norm_param {
    moving_average_fraction: 0.999
    eps: 0.001
  }
}
layer {
  name: "scale3a_branch2b"
  type: "Scale"
  bottom: "res3a_branch2b"
  top: "res3a_branch2b"
  param {
    lr_mult: 1
    decay_mult: 0
  }
  param {
    lr_mult: 1
    decay_mult: 0
  }
  scale_param {
    filler {
      type: "constant"
      value: 1
    }
    bias_term: true
    bias_filler {
      type: "constant"
      value: 0
    }
  }
}
layer {
  name: "res3a"
  type: "Eltwise"
  bottom: "res3a_branch1"
  bottom: "res3a_branch2b"
  top: "res3a"
}
layer {
  name: "res3a_relu"
  type: "ReLU"
  bottom: "res3a"
  top: "res3a"
}
layer {
  name: "res3b_branch2a"
  type: "Convolution"
  bottom: "res3a"
  top: "res3b_branch2a"
  param {
    lr_mult: 1
    decay_mult: 1
  }
  convolution_param {
    num_output: 128
    bias_term: false
    pad: 1
    kernel_size: 3
    stride: 1
    weight_filler {
      type: "gaussian"
      std: 0.01
    }
  }
}
layer {
  name: "bn3b_branch2a"
  type: "BatchNorm"
  bottom: "res3b_branch2a"
  top: "res3b_branch2a"
  batch_norm_param {
    moving_average_fraction: 0.999
    eps: 0.001
  }
}
layer {
  name: "scale3b_branch2a"
  type: "Scale"
  bottom: "res3b_branch2a"
  top: "res3b_branch2a"
  param {
    lr_mult: 1
    decay_mult: 0
  }
  param {
    lr_mult: 1
    decay_mult: 0
  }
  scale_param {
    filler {
      type: "constant"
      value: 1
    }
    bias_term: true
    bias_filler {
      type: "constant"
      value: 0
    }
  }
}
layer {
  name: "res3b_branch2a_relu"
  type: "ReLU"
  bottom: "res3b_branch2a"
  top: "res3b_branch2a"
}
layer {
  name: "res3b_branch2b"
  type: "Convolution"
  bottom: "res3b_branch2a"
  top: "res3b_branch2b"
  param {
    lr_mult: 1
    decay_mult: 1
  }
  convolution_param {
    num_output: 128
    bias_term: false
    pad: 1
    kernel_size: 3
    stride: 1
    weight_filler {
      type: "gaussian"
      std: 0.01
    }
  }
}
layer {
  name: "bn3b_branch2b"
  type: "BatchNorm"
  bottom: "res3b_branch2b"
  top: "res3b_branch2b"
  batch_norm_param {
    moving_average_fraction: 0.999
    eps: 0.001
  }
}
layer {
  name: "scale3b_branch2b"
  type: "Scale"
  bottom: "res3b_branch2b"
  top: "res3b_branch2b"
  param {
    lr_mult: 1
    decay_mult: 0
  }
  param {
    lr_mult: 1
    decay_mult: 0
  }
  scale_param {
    filler {
      type: "constant"
      value: 1
    }
    bias_term: true
    bias_filler {
      type: "constant"
      value: 0
    }
  }
}
layer {
  name: "res3b"
  type: "Eltwise"
  bottom: "res3a"
  bottom: "res3b_branch2b"
  top: "res3b"
}
layer {
  name: "res3b_relu"
  type: "ReLU"
  bottom: "res3b"
  top: "res3b"
}
layer {
  name: "res4a_branch1"
  type: "Convolution"
  bottom: "res3b"
  top: "res4a_branch1"
  param {
    lr_mult: 1
    decay_mult: 1
  }
  convolution_param {
    num_output: 256
    bias_term: false
    pad: 0
    kernel_size: 1
    stride: 2
    weight_filler {
      type: "gaussian"
      std: 0.01
    }
  }
}
layer {
  name: "bn4a_branch1"
  type: "BatchNorm"
  bottom: "res4a_branch1"
  top: "res4a_branch1"
  batch_norm_param {
    moving_average_fraction: 0.999
    eps: 0.001
  }
}
layer {
  name: "scale4a_branch1"
  type: "Scale"
  bottom: "res4a_branch1"
  top: "res4a_branch1"
  param {
    lr_mult: 1
    decay_mult: 0
  }
  param {
    lr_mult: 1
    decay_mult: 0
  }
  scale_param {
    filler {
      type: "constant"
      value: 1
    }
    bias_term: true
    bias_filler {
      type: "constant"
      value: 0
    }
  }
}
layer {
  name: "res4a_branch2a"
  type: "Convolution"
  bottom: "res3b"
  top: "res4a_branch2a"
  param {
    lr_mult: 1
    decay_mult: 1
  }
  convolution_param {
    num_output: 256
    bias_term: false
    pad: 1
    kernel_size: 3
    stride: 2
    weight_filler {
      type: "gaussian"
      std: 0.01
    }
  }
}
layer {
  name: "bn4a_branch2a"
  type: "BatchNorm"
  bottom: "res4a_branch2a"
  top: "res4a_branch2a"
  batch_norm_param {
    moving_average_fraction: 0.999
    eps: 0.001
  }
}
layer {
  name: "scale4a_branch2a"
  type: "Scale"
  bottom: "res4a_branch2a"
  top: "res4a_branch2a"
  param {
    lr_mult: 1
    decay_mult: 0
  }
  param {
    lr_mult: 1
    decay_mult: 0
  }
  scale_param {
    filler {
      type: "constant"
      value: 1
    }
    bias_term: true
    bias_filler {
      type: "constant"
      value: 0
    }
  }
}
layer {
  name: "res4a_branch2a_relu"
  type: "ReLU"
  bottom: "res4a_branch2a"
  top: "res4a_branch2a"
}
layer {
  name: "res4a_branch2b"
  type: "Convolution"
  bottom: "res4a_branch2a"
  top: "res4a_branch2b"
  param {
    lr_mult: 1
    decay_mult: 1
  }
  convolution_param {
    num_output: 256
    bias_term: false
    pad: 1
    kernel_size: 3
    stride: 1
    weight_filler {
      type: "gaussian"
      std: 0.01
    }
  }
}
layer {
  name: "bn4a_branch2b"
  type: "BatchNorm"
  bottom: "res4a_branch2b"
  top: "res4a_branch2b"
  batch_norm_param {
    moving_average_fraction: 0.999
    eps: 0.001
  }
}
layer {
  name: "scale4a_branch2b"
  type: "Scale"
  bottom: "res4a_branch2b"
  top: "res4a_branch2b"
  param {
    lr_mult: 1
    decay_mult: 0
  }
  param {
    lr_mult: 1
    decay_mult: 0
  }
  scale_param {
    filler {
      type: "constant"
      value: 1
    }
    bias_term: true
    bias_filler {
      type: "constant"
      value: 0
    }
  }
}
layer {
  name: "res4a"
  type: "Eltwise"
  bottom: "res4a_branch1"
  bottom: "res4a_branch2b"
  top: "res4a"
}
layer {
  name: "res4a_relu"
  type: "ReLU"
  bottom: "res4a"
  top: "res4a"
}
layer {
  name: "res4b_branch2a"
  type: "Convolution"
  bottom: "res4a"
  top: "res4b_branch2a"
  param {
    lr_mult: 1
    decay_mult: 1
  }
  convolution_param {
    num_output: 256
    bias_term: false
    pad: 1
    kernel_size: 3
    stride: 1
    weight_filler {
      type: "gaussian"
      std: 0.01
    }
  }
}
layer {
  name: "bn4b_branch2a"
  type: "BatchNorm"
  bottom: "res4b_branch2a"
  top: "res4b_branch2a"
  batch_norm_param {
    moving_average_fraction: 0.999
    eps: 0.001
  }
}
layer {
  name: "scale4b_branch2a"
  type: "Scale"
  bottom: "res4b_branch2a"
  top: "res4b_branch2a"
  param {
    lr_mult: 1
    decay_mult: 0
  }
  param {
    lr_mult: 1
    decay_mult: 0
  }
  scale_param {
    filler {
      type: "constant"
      value: 1
    }
    bias_term: true
    bias_filler {
      type: "constant"
      value: 0
    }
  }
}
layer {
  name: "res4b_branch2a_relu"
  type: "ReLU"
  bottom: "res4b_branch2a"
  top: "res4b_branch2a"
}
layer {
  name: "res4b_branch2b"
  type: "Convolution"
  bottom: "res4b_branch2a"
  top: "res4b_branch2b"
  param {
    lr_mult: 1
    decay_mult: 1
  }
  convolution_param {
    num_output: 256
    bias_term: false
    pad: 1
    kernel_size: 3
    stride: 1
    weight_filler {
      type: "gaussian"
      std: 0.01
    }
  }
}
layer {
  name: "bn4b_branch2b"
  type: "BatchNorm"
  bottom: "res4b_branch2b"
  top: "res4b_branch2b"
  batch_norm_param {
    moving_average_fraction: 0.999
    eps: 0.001
  }
}
layer {
  name: "scale4b_branch2b"
  type: "Scale"
  bottom: "res4b_branch2b"
  top: "res4b_branch2b"
  param {
    lr_mult: 1
    decay_mult: 0
  }
  param {
    lr_mult: 1
    decay_mult: 0
  }
  scale_param {
    filler {
      type: "constant"
      value: 1
    }
    bias_term: true
    bias_filler {
      type: "constant"
      value: 0
    }
  }
}
layer {
  name: "res4b"
  type: "Eltwise"
  bottom: "res4a"
  bottom: "res4b_branch2b"
  top: "res4b"
}
layer {
  name: "res4b_relu"
  type: "ReLU"
  bottom: "res4b"
  top: "res4b"
}
layer {
  name: "res5a_branch1"
  type: "Convolution"
  bottom: "res4b"
  top: "res5a_branch1"
  param {
    lr_mult: 1
    decay_mult: 1
  }
  convolution_param {
    num_output: 512
    bias_term: false
    pad: 0
    kernel_size: 1
    stride: 2
    weight_filler {
      type: "gaussian"
      std: 0.01
    }
  }
}
layer {
  name: "bn5a_branch1"
  type: "BatchNorm"
  bottom: "res5a_branch1"
  top: "res5a_branch1"
  batch_norm_param {
    moving_average_fraction: 0.999
    eps: 0.001
  }
}
layer {
  name: "scale5a_branch1"
  type: "Scale"
  bottom: "res5a_branch1"
  top: "res5a_branch1"
  param {
    lr_mult: 1
    decay_mult: 0
  }
  param {
    lr_mult: 1
    decay_mult: 0
  }
  scale_param {
    filler {
      type: "constant"
      value: 1
    }
    bias_term: true
    bias_filler {
      type: "constant"
      value: 0
    }
  }
}
layer {
  name: "res5a_branch2a"
  type: "Convolution"
  bottom: "res4b"
  top: "res5a_branch2a"
  param {
    lr_mult: 1
    decay_mult: 1
  }
  convolution_param {
    num_output: 512
    bias_term: false
    pad: 1
    kernel_size: 3
    stride: 2
    weight_filler {
      type: "gaussian"
      std: 0.01
    }
  }
}
layer {
  name: "bn5a_branch2a"
  type: "BatchNorm"
  bottom: "res5a_branch2a"
  top: "res5a_branch2a"
  batch_norm_param {
    moving_average_fraction: 0.999
    eps: 0.001
  }
}
layer {
  name: "scale5a_branch2a"
  type: "Scale"
  bottom: "res5a_branch2a"
  top: "res5a_branch2a"
  param {
    lr_mult: 1
    decay_mult: 0
  }
  param {
    lr_mult: 1
    decay_mult: 0
  }
  scale_param {
    filler {
      type: "constant"
      value: 1
    }
    bias_term: true
    bias_filler {
      type: "constant"
      value: 0
    }
  }
}
layer {
  name: "res5a_branch2a_relu"
  type: "ReLU"
  bottom: "res5a_branch2a"
  top: "res5a_branch2a"
}
layer {
  name: "res5a_branch2b"
  type: "Convolution"
  bottom: "res5a_branch2a"
  top: "res5a_branch2b"
  param {
    lr_mult: 1
    decay_mult: 1
  }
  convolution_param {
    num_output: 512
    bias_term: false
    pad: 1
    kernel_size: 3
    stride: 1
    weight_filler {
      type: "gaussian"
      std: 0.01
    }
  }
}
layer {
  name: "bn5a_branch2b"
  type: "BatchNorm"
  bottom: "res5a_branch2b"
  top: "res5a_branch2b"
  batch_norm_param {
    moving_average_fraction: 0.999
    eps: 0.001
  }
}
layer {
  name: "scale5a_branch2b"
  type: "Scale"
  bottom: "res5a_branch2b"
  top: "res5a_branch2b"
  param {
    lr_mult: 1
    decay_mult: 0
  }
  param {
    lr_mult: 1
    decay_mult: 0
  }
  scale_param {
    filler {
      type: "constant"
      value: 1
    }
    bias_term: true
    bias_filler {
      type: "constant"
      value: 0
    }
  }
}
layer {
  name: "res5a"
  type: "Eltwise"
  bottom: "res5a_branch1"
  bottom: "res5a_branch2b"
  top: "res5a"
}
layer {
  name: "res5a_relu"
  type: "ReLU"
  bottom: "res5a"
  top: "res5a"
}
layer {
  name: "res5b_branch2a"
  type: "Convolution"
  bottom: "res5a"
  top: "res5b_branch2a"
  param {
    lr_mult: 1
    decay_mult: 1
  }
  convolution_param {
    num_output: 512
    bias_term: false
    pad: 1
    kernel_size: 3
    stride: 1
    weight_filler {
      type: "gaussian"
      std: 0.01
    }
  }
}
layer {
  name: "bn5b_branch2a"
  type: "BatchNorm"
  bottom: "res5b_branch2a"
  top: "res5b_branch2a"
  batch_norm_param {
    moving_average_fraction: 0.999
    eps: 0.001
  }
}
layer {
  name: "scale5b_branch2a"
  type: "Scale"
  bottom: "res5b_branch2a"
  top: "res5b_branch2a"
  param {
    lr_mult: 1
    decay_mult: 0
  }
  param {
    lr_mult: 1
    decay_mult: 0
  }
  scale_param {
    filler {
      type: "constant"
      value: 1
    }
    bias_term: true
    bias_filler {
      type: "constant"
      value: 0
    }
  }
}
layer {
  name: "res5b_branch2a_relu"
  type: "ReLU"
  bottom: "res5b_branch2a"
  top: "res5b_branch2a"
}
layer {
  name: "res5b_branch2b"
  type: "Convolution"
  bottom: "res5b_branch2a"
  top: "res5b_branch2b"
  param {
    lr_mult: 1
    decay_mult: 1
  }
  convolution_param {
    num_output: 512
    bias_term: false
    pad: 1
    kernel_size: 3
    stride: 1
    weight_filler {
      type: "gaussian"
      std: 0.01
    }
  }
}
layer {
  name: "bn5b_branch2b"
  type: "BatchNorm"
  bottom: "res5b_branch2b"
  top: "res5b_branch2b"
  batch_norm_param {
    moving_average_fraction: 0.999
    eps: 0.001
  }
}
layer {
  name: "scale5b_branch2b"
  type: "Scale"
  bottom: "res5b_branch2b"
  top: "res5b_branch2b"
  param {
    lr_mult: 1
    decay_mult: 0
  }
  param {
    lr_mult: 1
    decay_mult: 0
  }
  scale_param {
    filler {
      type: "constant"
      value: 1
    }
    bias_term: true
    bias_filler {
      type: "constant"
      value: 0
    }
  }
}
layer {
  name: "res5b"
  type: "Eltwise"
  bottom: "res5a"
  bottom: "res5b_branch2b"
  top: "res5b"
}
layer {
  name: "res5b_relu"
  type: "ReLU"
  bottom: "res5b"
  top: "res5b"
}
layer {
  name: "conv7_1"
  type: "Convolution"
  bottom: "res5b"
  top: "conv7_1"
  param {
    lr_mult: 1
    decay_mult: 1
  }
  convolution_param {
    num_output: 128
    bias_term: false
    pad: 0
    kernel_size: 1
    stride: 1
    weight_filler {
      type: "gaussian"
      std: 0.01
    }
  }
}
layer {
  name: "conv7_1_bn"
  type: "BatchNorm"
  bottom: "conv7_1"
  top: "conv7_1"
  batch_norm_param {
    moving_average_fraction: 0.999
    eps: 0.001
  }
}
layer {
  name: "conv7_1_scale"
  type: "Scale"
  bottom: "conv7_1"
  top: "conv7_1"
  param {
    lr_mult: 1
    decay_mult: 0
  }
  param {
    lr_mult: 1
    decay_mult: 0
  }
  scale_param {
    filler {
      type: "constant"
      value: 1
    }
    bias_term: true
    bias_filler {
      type: "constant"
      value: 0
    }
  }
}
layer {
  name: "conv7_1_relu"
  type: "ReLU"
  bottom: "conv7_1"
  top: "conv7_1"
}
layer {
  name: "conv7_2"
  type: "Convolution"
  bottom: "conv7_1"
  top: "conv7_2"
  param {
    lr_mult: 1
    decay_mult: 1
  }
  convolution_param {
    num_output: 256
    bias_term: false
    pad: 1
    kernel_size: 3
    stride: 2
    weight_filler {
      type: "gaussian"
      std: 0.01
    }
  }
}
layer {
  name: "conv7_2_bn"
  type: "BatchNorm"
  bottom: "conv7_2"
  top: "conv7_2"
  batch_norm_param {
    moving_average_fraction: 0.999
    eps: 0.001
  }
}
layer {
  name: "conv7_2_scale"
  type: "Scale"
  bottom: "conv7_2"
  top: "conv7_2"
  param {
    lr_mult: 1
    decay_mult: 0
  }
  param {
    lr_mult: 1
    decay_mult: 0
  }
  scale_param {
    filler {
      type: "constant"
      value: 1
    }
    bias_term: true
    bias_filler {
      type: "constant"
      value: 0
    }
  }
}
layer {
  name: "conv7_2_relu"
  type: "ReLU"
  bottom: "conv7_2"
  top: "conv7_2"
}
layer {
  name: "conv8_1"
  type: "Convolution"
  bottom: "conv7_2"
  top: "conv8_1"
  param {
    lr_mult: 1
    decay_mult: 1
  }
  convolution_param {
    num_output: 128
    bias_term: false
    pad: 0
    kernel_size: 1
    stride: 1
    weight_filler {
      type: "gaussian"
      std: 0.01
    }
  }
}
layer {
  name: "conv8_1_bn"
  type: "BatchNorm"
  bottom: "conv8_1"
  top: "conv8_1"
  batch_norm_param {
    moving_average_fraction: 0.999
    eps: 0.001
  }
}
layer {
  name: "conv8_1_scale"
  type: "Scale"
  bottom: "conv8_1"
  top: "conv8_1"
  param {
    lr_mult: 1
    decay_mult: 0
  }
  param {
    lr_mult: 1
    decay_mult: 0
  }
  scale_param {
    filler {
      type: "constant"
      value: 1
    }
    bias_term: true
    bias_filler {
      type: "constant"
      value: 0
    }
  }
}
layer {
  name: "conv8_1_relu"
  type: "ReLU"
  bottom: "conv8_1"
  top: "conv8_1"
}
layer {
  name: "conv8_2"
  type: "Convolution"
  bottom: "conv8_1"
  top: "conv8_2"
  param {
    lr_mult: 1
    decay_mult: 1
  }
  convolution_param {
    num_output: 256
    bias_term: false
    pad: 1
    kernel_size: 3
    stride: 2
    weight_filler {
      type: "gaussian"
      std: 0.01
    }
  }
}
layer {
  name: "conv8_2_bn"
  type: "BatchNorm"
  bottom: "conv8_2"
  top: "conv8_2"
  batch_norm_param {
    moving_average_fraction: 0.999
    eps: 0.001
  }
}
layer {
  name: "conv8_2_scale"
  type: "Scale"
  bottom: "conv8_2"
  top: "conv8_2"
  param {
    lr_mult: 1
    decay_mult: 0
  }
  param {
    lr_mult: 1
    decay_mult: 0
  }
  scale_param {
    filler {
      type: "constant"
      value: 1
    }
    bias_term: true
    bias_filler {
      type: "constant"
      value: 0
    }
  }
}
layer {
  name: "conv8_2_relu"
  type: "ReLU"
  bottom: "conv8_2"
  top: "conv8_2"
}
layer {
  name: "conv9_1"
  type: "Convolution"
  bottom: "conv8_2"
  top: "conv9_1"
  param {
    lr_mult: 1
    decay_mult: 1
  }
  convolution_param {
    num_output: 128
    bias_term: false
    pad: 0
    kernel_size: 1
    stride: 1
    weight_filler {
      type: "gaussian"
      std: 0.01
    }
  }
}
layer {
  name: "conv9_1_bn"
  type: "BatchNorm"
  bottom: "conv9_1"
  top: "conv9_1"
  batch_norm_param {
    moving_average_fraction: 0.999
    eps: 0.001
  }
}
layer {
  name: "conv9_1_scale"
  type: "Scale"
  bottom: "conv9_1"
  top: "conv9_1"
  param {
    lr_mult: 1
    decay_mult: 0
  }
  param {
    lr_mult: 1
    decay_mult: 0
  }
  scale_param {
    filler {
      type: "constant"
      value: 1
    }
    bias_term: true
    bias_filler {
      type: "constant"
      value: 0
    }
  }
}
layer {
  name: "conv9_1_relu"
  type: "ReLU"
  bottom: "conv9_1"
  top: "conv9_1"
}
layer {
  name: "conv9_2"
  type: "Convolution"
  bottom: "conv9_1"
  top: "conv9_2"
  param {
    lr_mult: 1
    decay_mult: 1
  }
  convolution_param {
    num_output: 256
    bias_term: false
    pad: 1
    kernel_size: 3
    stride: 2
    weight_filler {
      type: "gaussian"
      std: 0.01
    }
  }
}
layer {
  name: "conv9_2_bn"
  type: "BatchNorm"
  bottom: "conv9_2"
  top: "conv9_2"
  batch_norm_param {
    moving_average_fraction: 0.999
    eps: 0.001
  }
}
layer {
  name: "conv9_2_scale"
  type: "Scale"
  bottom: "conv9_2"
  top: "conv9_2"
  param {
    lr_mult: 1
    decay_mult: 0
  }
  param {
    lr_mult: 1
    decay_mult: 0
  }
  scale_param {
    filler {
      type: "constant"
      value: 1
    }
    bias_term: true
    bias_filler {
      type: "constant"
      value: 0
    }
  }
}
layer {
  name: "conv9_2_relu"
  type: "ReLU"
  bottom: "conv9_2"
  top: "conv9_2"
}
layer {
  name: "pool6"
  type: "Pooling"
  bottom: "conv9_2"
  top: "pool6"
  pooling_param {
    pool: AVE
    global_pooling: true
  }
}
layer {
  name: "res4b_relu_mbox_loc"
  type: "Convolution"
  bottom: "res4b"
  top: "res4b_relu_mbox_loc"
  param {
    lr_mult: 1
    decay_mult: 1
  }
  convolution_param {
    num_output: 16
    bias_term: false
    pad: 1
    kernel_size: 3
    stride: 1
    weight_filler {
      type: "gaussian"
      std: 0.01
    }
  }
}
layer {
  name: "res4b_relu_mbox_loc_bn"
  type: "BatchNorm"
  bottom: "res4b_relu_mbox_loc"
  top: "res4b_relu_mbox_loc"
  batch_norm_param {
    moving_average_fraction: 0.999
    eps: 0.001
  }
}
layer {
  name: "res4b_relu_mbox_loc_scale"
  type: "Scale"
  bottom: "res4b_relu_mbox_loc"
  top: "res4b_relu_mbox_loc"
  param {
    lr_mult: 1
    decay_mult: 0
  }
  param {
    lr_mult: 1
    decay_mult: 0
  }
  scale_param {
    filler {
      type: "constant"
      value: 1
    }
    bias_term: true
    bias_filler {
      type: "constant"
      value: 0
    }
  }
}
layer {
  name: "res4b_relu_mbox_loc_perm"
  type: "Permute"
  bottom: "res4b_relu_mbox_loc"
  top: "r
I0831 09:31:52.776306 27242 layer_factory.hpp:77] Creating layer data
I0831 09:31:52.801141 27242 net.cpp:100] Creating Layer data
I0831 09:31:52.801205 27242 net.cpp:408] data -> data
I0831 09:31:52.801270 27242 net.cpp:408] data -> label
I0831 09:31:52.885536 27288 db_lmdb.cpp:35] Opened lmdb /mnt/mfs3/zhongchong/task-face/lmdb/train_lmdb
I0831 09:31:53.112072 27242 annotated_data_layer.cpp:62] output data size: 12,3,512,512
I0831 09:31:53.232008 27242 net.cpp:150] Setting up data
I0831 09:31:53.232066 27242 net.cpp:157] Top shape: 12 3 512 512 (9437184)
I0831 09:31:53.232085 27242 net.cpp:157] Top shape: 1 1 1 8 (8)
I0831 09:31:53.232095 27242 net.cpp:165] Memory required for data: 37748768
I0831 09:31:53.232120 27242 layer_factory.hpp:77] Creating layer data_data_0_split
I0831 09:31:53.232156 27242 net.cpp:100] Creating Layer data_data_0_split
I0831 09:31:53.232169 27242 net.cpp:434] data_data_0_split <- data
I0831 09:31:53.232215 27242 net.cpp:408] data_data_0_split -> data_data_0_split_0
I0831 09:31:53.232250 27242 net.cpp:408] data_data_0_split -> data_data_0_split_1
I0831 09:31:53.232290 27242 net.cpp:408] data_data_0_split -> data_data_0_split_2
I0831 09:31:53.232326 27242 net.cpp:408] data_data_0_split -> data_data_0_split_3
I0831 09:31:53.232360 27242 net.cpp:408] data_data_0_split -> data_data_0_split_4
I0831 09:31:53.232388 27242 net.cpp:408] data_data_0_split -> data_data_0_split_5
I0831 09:31:53.232417 27242 net.cpp:408] data_data_0_split -> data_data_0_split_6
I0831 09:31:53.232676 27242 net.cpp:150] Setting up data_data_0_split
I0831 09:31:53.232697 27242 net.cpp:157] Top shape: 12 3 512 512 (9437184)
I0831 09:31:53.232714 27242 net.cpp:157] Top shape: 12 3 512 512 (9437184)
I0831 09:31:53.232728 27242 net.cpp:157] Top shape: 12 3 512 512 (9437184)
I0831 09:31:53.232748 27242 net.cpp:157] Top shape: 12 3 512 512 (9437184)
I0831 09:31:53.232761 27242 net.cpp:157] Top shape: 12 3 512 512 (9437184)
I0831 09:31:53.232777 27242 net.cpp:157] Top shape: 12 3 512 512 (9437184)
I0831 09:31:53.232803 27242 net.cpp:157] Top shape: 12 3 512 512 (9437184)
I0831 09:31:53.232815 27242 net.cpp:165] Memory required for data: 301989920
I0831 09:31:53.232827 27242 layer_factory.hpp:77] Creating layer conv1
I0831 09:31:53.232872 27242 net.cpp:100] Creating Layer conv1
I0831 09:31:53.232889 27242 net.cpp:434] conv1 <- data_data_0_split_0
I0831 09:31:53.232913 27242 net.cpp:408] conv1 -> conv1
I0831 09:31:53.240561 27242 net.cpp:150] Setting up conv1
I0831 09:31:53.240592 27242 net.cpp:157] Top shape: 12 64 256 256 (50331648)
I0831 09:31:53.240598 27242 net.cpp:165] Memory required for data: 503316512
I0831 09:31:53.240653 27242 layer_factory.hpp:77] Creating layer bn_conv1
I0831 09:31:53.240674 27242 net.cpp:100] Creating Layer bn_conv1
I0831 09:31:53.240685 27242 net.cpp:434] bn_conv1 <- conv1
I0831 09:31:53.240700 27242 net.cpp:395] bn_conv1 -> conv1 (in-place)
I0831 09:31:53.241775 27242 net.cpp:150] Setting up bn_conv1
I0831 09:31:53.241796 27242 net.cpp:157] Top shape: 12 64 256 256 (50331648)
I0831 09:31:53.241802 27242 net.cpp:165] Memory required for data: 704643104
I0831 09:31:53.241828 27242 layer_factory.hpp:77] Creating layer scale_conv1
I0831 09:31:53.241848 27242 net.cpp:100] Creating Layer scale_conv1
I0831 09:31:53.241856 27242 net.cpp:434] scale_conv1 <- conv1
I0831 09:31:53.241871 27242 net.cpp:395] scale_conv1 -> conv1 (in-place)
I0831 09:31:53.241961 27242 layer_factory.hpp:77] Creating layer scale_conv1
I0831 09:31:53.242261 27242 net.cpp:150] Setting up scale_conv1
I0831 09:31:53.242280 27242 net.cpp:157] Top shape: 12 64 256 256 (50331648)
I0831 09:31:53.242286 27242 net.cpp:165] Memory required for data: 905969696
I0831 09:31:53.242308 27242 layer_factory.hpp:77] Creating layer conv1_relu
I0831 09:31:53.242334 27242 net.cpp:100] Creating Layer conv1_relu
I0831 09:31:53.242377 27242 net.cpp:434] conv1_relu <- conv1
I0831 09:31:53.242395 27242 net.cpp:395] conv1_relu -> conv1 (in-place)
I0831 09:31:53.242424 27242 net.cpp:150] Setting up conv1_relu
I0831 09:31:53.242440 27242 net.cpp:157] Top shape: 12 64 256 256 (50331648)
I0831 09:31:53.242452 27242 net.cpp:165] Memory required for data: 1107296288
I0831 09:31:53.242485 27242 layer_factory.hpp:77] Creating layer pool1
I0831 09:31:53.242506 27242 net.cpp:100] Creating Layer pool1
I0831 09:31:53.242525 27242 net.cpp:434] pool1 <- conv1
I0831 09:31:53.242550 27242 net.cpp:408] pool1 -> pool1
I0831 09:31:53.242647 27242 net.cpp:150] Setting up pool1
I0831 09:31:53.242669 27242 net.cpp:157] Top shape: 12 64 128 128 (12582912)
I0831 09:31:53.242682 27242 net.cpp:165] Memory required for data: 1157627936
I0831 09:31:53.242697 27242 layer_factory.hpp:77] Creating layer pool1_pool1_0_split
I0831 09:31:53.242729 27242 net.cpp:100] Creating Layer pool1_pool1_0_split
I0831 09:31:53.242743 27242 net.cpp:434] pool1_pool1_0_split <- pool1
I0831 09:31:53.242769 27242 net.cpp:408] pool1_pool1_0_split -> pool1_pool1_0_split_0
I0831 09:31:53.242794 27242 net.cpp:408] pool1_pool1_0_split -> pool1_pool1_0_split_1
I0831 09:31:53.242869 27242 net.cpp:150] Setting up pool1_pool1_0_split
I0831 09:31:53.242888 27242 net.cpp:157] Top shape: 12 64 128 128 (12582912)
I0831 09:31:53.242908 27242 net.cpp:157] Top shape: 12 64 128 128 (12582912)
I0831 09:31:53.242919 27242 net.cpp:165] Memory required for data: 1258291232
I0831 09:31:53.242947 27242 layer_factory.hpp:77] Creating layer res2a_branch1
I0831 09:31:53.242986 27242 net.cpp:100] Creating Layer res2a_branch1
I0831 09:31:53.243007 27242 net.cpp:434] res2a_branch1 <- pool1_pool1_0_split_0
I0831 09:31:53.243055 27242 net.cpp:408] res2a_branch1 -> res2a_branch1
I0831 09:31:53.244105 27242 net.cpp:150] Setting up res2a_branch1
I0831 09:31:53.244128 27242 net.cpp:157] Top shape: 12 64 128 128 (12582912)
I0831 09:31:53.244143 27242 net.cpp:165] Memory required for data: 1308622880
I0831 09:31:53.244168 27242 layer_factory.hpp:77] Creating layer bn2a_branch1
I0831 09:31:53.244185 27242 net.cpp:100] Creating Layer bn2a_branch1
I0831 09:31:53.244199 27242 net.cpp:434] bn2a_branch1 <- res2a_branch1
I0831 09:31:53.244238 27242 net.cpp:395] bn2a_branch1 -> res2a_branch1 (in-place)
I0831 09:31:53.244550 27242 net.cpp:150] Setting up bn2a_branch1
I0831 09:31:53.244571 27242 net.cpp:157] Top shape: 12 64 128 128 (12582912)
I0831 09:31:53.244585 27242 net.cpp:165] Memory required for data: 1358954528
I0831 09:31:53.244627 27242 layer_factory.hpp:77] Creating layer scale2a_branch1
I0831 09:31:53.244662 27242 net.cpp:100] Creating Layer scale2a_branch1
I0831 09:31:53.244675 27242 net.cpp:434] scale2a_branch1 <- res2a_branch1
I0831 09:31:53.244698 27242 net.cpp:395] scale2a_branch1 -> res2a_branch1 (in-place)
I0831 09:31:53.244791 27242 layer_factory.hpp:77] Creating layer scale2a_branch1
I0831 09:31:53.244995 27242 net.cpp:150] Setting up scale2a_branch1
I0831 09:31:53.245015 27242 net.cpp:157] Top shape: 12 64 128 128 (12582912)
I0831 09:31:53.245039 27242 net.cpp:165] Memory required for data: 1409286176
I0831 09:31:53.245064 27242 layer_factory.hpp:77] Creating layer res2a_branch2a
I0831 09:31:53.245092 27242 net.cpp:100] Creating Layer res2a_branch2a
I0831 09:31:53.245113 27242 net.cpp:434] res2a_branch2a <- pool1_pool1_0_split_1
I0831 09:31:53.245139 27242 net.cpp:408] res2a_branch2a -> res2a_branch2a
I0831 09:31:53.245972 27242 net.cpp:150] Setting up res2a_branch2a
I0831 09:31:53.245993 27242 net.cpp:157] Top shape: 12 64 128 128 (12582912)
I0831 09:31:53.246006 27242 net.cpp:165] Memory required for data: 1459617824
I0831 09:31:53.246029 27242 layer_factory.hpp:77] Creating layer bn2a_branch2a
I0831 09:31:53.246047 27242 net.cpp:100] Creating Layer bn2a_branch2a
I0831 09:31:53.246059 27242 net.cpp:434] bn2a_branch2a <- res2a_branch2a
I0831 09:31:53.246103 27242 net.cpp:395] bn2a_branch2a -> res2a_branch2a (in-place)
I0831 09:31:53.246382 27242 net.cpp:150] Setting up bn2a_branch2a
I0831 09:31:53.246402 27242 net.cpp:157] Top shape: 12 64 128 128 (12582912)
I0831 09:31:53.246414 27242 net.cpp:165] Memory required for data: 1509949472
I0831 09:31:53.246444 27242 layer_factory.hpp:77] Creating layer scale2a_branch2a
I0831 09:31:53.246466 27242 net.cpp:100] Creating Layer scale2a_branch2a
I0831 09:31:53.246479 27242 net.cpp:434] scale2a_branch2a <- res2a_branch2a
I0831 09:31:53.246507 27242 net.cpp:395] scale2a_branch2a -> res2a_branch2a (in-place)
I0831 09:31:53.246592 27242 layer_factory.hpp:77] Creating layer scale2a_branch2a
I0831 09:31:53.246811 27242 net.cpp:150] Setting up scale2a_branch2a
I0831 09:31:53.246832 27242 net.cpp:157] Top shape: 12 64 128 128 (12582912)
I0831 09:31:53.246845 27242 net.cpp:165] Memory required for data: 1560281120
I0831 09:31:53.246894 27242 layer_factory.hpp:77] Creating layer res2a_branch2a_relu
I0831 09:31:53.246922 27242 net.cpp:100] Creating Layer res2a_branch2a_relu
I0831 09:31:53.246934 27242 net.cpp:434] res2a_branch2a_relu <- res2a_branch2a
I0831 09:31:53.246953 27242 net.cpp:395] res2a_branch2a_relu -> res2a_branch2a (in-place)
I0831 09:31:53.246980 27242 net.cpp:150] Setting up res2a_branch2a_relu
I0831 09:31:53.246994 27242 net.cpp:157] Top shape: 12 64 128 128 (12582912)
I0831 09:31:53.247007 27242 net.cpp:165] Memory required for data: 1610612768
I0831 09:31:53.247027 27242 layer_factory.hpp:77] Creating layer res2a_branch2b
I0831 09:31:53.247077 27242 net.cpp:100] Creating Layer res2a_branch2b
I0831 09:31:53.247092 27242 net.cpp:434] res2a_branch2b <- res2a_branch2a
I0831 09:31:53.247117 27242 net.cpp:408] res2a_branch2b -> res2a_branch2b
I0831 09:31:53.251889 27242 net.cpp:150] Setting up res2a_branch2b
I0831 09:31:53.251920 27242 net.cpp:157] Top shape: 12 64 128 128 (12582912)
I0831 09:31:53.251957 27242 net.cpp:165] Memory required for data: 1660944416
I0831 09:31:53.251993 27242 layer_factory.hpp:77] Creating layer bn2a_branch2b
I0831 09:31:53.252025 27242 net.cpp:100] Creating Layer bn2a_branch2b
I0831 09:31:53.252046 27242 net.cpp:434] bn2a_branch2b <- res2a_branch2b
I0831 09:31:53.252069 27242 net.cpp:395] bn2a_branch2b -> res2a_branch2b (in-place)
I0831 09:31:53.252382 27242 net.cpp:150] Setting up bn2a_branch2b
I0831 09:31:53.252403 27242 net.cpp:157] Top shape: 12 64 128 128 (12582912)
I0831 09:31:53.252414 27242 net.cpp:165] Memory required for data: 1711276064
I0831 09:31:53.252446 27242 layer_factory.hpp:77] Creating layer scale2a_branch2b
I0831 09:31:53.252466 27242 net.cpp:100] Creating Layer scale2a_branch2b
I0831 09:31:53.252477 27242 net.cpp:434] scale2a_branch2b <- res2a_branch2b
I0831 09:31:53.252506 27242 net.cpp:395] scale2a_branch2b -> res2a_branch2b (in-place)
I0831 09:31:53.252588 27242 layer_factory.hpp:77] Creating layer scale2a_branch2b
I0831 09:31:53.252825 27242 net.cpp:150] Setting up scale2a_branch2b
I0831 09:31:53.252851 27242 net.cpp:157] Top shape: 12 64 128 128 (12582912)
I0831 09:31:53.252863 27242 net.cpp:165] Memory required for data: 1761607712
I0831 09:31:53.252897 27242 layer_factory.hpp:77] Creating layer res2a
I0831 09:31:53.252914 27242 net.cpp:100] Creating Layer res2a
I0831 09:31:53.252936 27242 net.cpp:434] res2a <- res2a_branch1
I0831 09:31:53.252954 27242 net.cpp:434] res2a <- res2a_branch2b
I0831 09:31:53.252981 27242 net.cpp:408] res2a -> res2a
I0831 09:31:53.253051 27242 net.cpp:150] Setting up res2a
I0831 09:31:53.253083 27242 net.cpp:157] Top shape: 12 64 128 128 (12582912)
I0831 09:31:53.253095 27242 net.cpp:165] Memory required for data: 1811939360
I0831 09:31:53.253108 27242 layer_factory.hpp:77] Creating layer res2a_relu
I0831 09:31:53.253134 27242 net.cpp:100] Creating Layer res2a_relu
I0831 09:31:53.253147 27242 net.cpp:434] res2a_relu <- res2a
I0831 09:31:53.253175 27242 net.cpp:395] res2a_relu -> res2a (in-place)
I0831 09:31:53.253193 27242 net.cpp:150] Setting up res2a_relu
I0831 09:31:53.253209 27242 net.cpp:157] Top shape: 12 64 128 128 (12582912)
I0831 09:31:53.253227 27242 net.cpp:165] Memory required for data: 1862271008
I0831 09:31:53.253242 27242 layer_factory.hpp:77] Creating layer res2a_res2a_relu_0_split
I0831 09:31:53.253271 27242 net.cpp:100] Creating Layer res2a_res2a_relu_0_split
I0831 09:31:53.253295 27242 net.cpp:434] res2a_res2a_relu_0_split <- res2a
I0831 09:31:53.253321 27242 net.cpp:408] res2a_res2a_relu_0_split -> res2a_res2a_relu_0_split_0
I0831 09:31:53.253342 27242 net.cpp:408] res2a_res2a_relu_0_split -> res2a_res2a_relu_0_split_1
I0831 09:31:53.253417 27242 net.cpp:150] Setting up res2a_res2a_relu_0_split
I0831 09:31:53.253435 27242 net.cpp:157] Top shape: 12 64 128 128 (12582912)
I0831 09:31:53.253453 27242 net.cpp:157] Top shape: 12 64 128 128 (12582912)
I0831 09:31:53.253470 27242 net.cpp:165] Memory required for data: 1962934304
I0831 09:31:53.253499 27242 layer_factory.hpp:77] Creating layer res2b_branch2a
I0831 09:31:53.253531 27242 net.cpp:100] Creating Layer res2b_branch2a
I0831 09:31:53.253543 27242 net.cpp:434] res2b_branch2a <- res2a_res2a_relu_0_split_0
I0831 09:31:53.253576 27242 net.cpp:408] res2b_branch2a -> res2b_branch2a
I0831 09:31:53.254420 27242 net.cpp:150] Setting up res2b_branch2a
I0831 09:31:53.254441 27242 net.cpp:157] Top shape: 12 64 128 128 (12582912)
I0831 09:31:53.254454 27242 net.cpp:165] Memory required for data: 2013265952
I0831 09:31:53.254478 27242 layer_factory.hpp:77] Creating layer bn2b_branch2a
I0831 09:31:53.254500 27242 net.cpp:100] Creating Layer bn2b_branch2a
I0831 09:31:53.254511 27242 net.cpp:434] bn2b_branch2a <- res2b_branch2a
I0831 09:31:53.254549 27242 net.cpp:395] bn2b_branch2a -> res2b_branch2a (in-place)
I0831 09:31:53.254844 27242 net.cpp:150] Setting up bn2b_branch2a
I0831 09:31:53.254873 27242 net.cpp:157] Top shape: 12 64 128 128 (12582912)
I0831 09:31:53.254884 27242 net.cpp:165] Memory required for data: 2063597600
I0831 09:31:53.254931 27242 layer_factory.hpp:77] Creating layer scale2b_branch2a
I0831 09:31:53.254961 27242 net.cpp:100] Creating Layer scale2b_branch2a
I0831 09:31:53.254973 27242 net.cpp:434] scale2b_branch2a <- res2b_branch2a
I0831 09:31:53.255002 27242 net.cpp:395] scale2b_branch2a -> res2b_branch2a (in-place)
I0831 09:31:53.255090 27242 layer_factory.hpp:77] Creating layer scale2b_branch2a
I0831 09:31:53.255301 27242 net.cpp:150] Setting up scale2b_branch2a
I0831 09:31:53.255321 27242 net.cpp:157] Top shape: 12 64 128 128 (12582912)
I0831 09:31:53.255344 27242 net.cpp:165] Memory required for data: 2113929248
I0831 09:31:53.255372 27242 layer_factory.hpp:77] Creating layer res2b_branch2a_relu
I0831 09:31:53.255391 27242 net.cpp:100] Creating Layer res2b_branch2a_relu
I0831 09:31:53.255414 27242 net.cpp:434] res2b_branch2a_relu <- res2b_branch2a
I0831 09:31:53.255434 27242 net.cpp:395] res2b_branch2a_relu -> res2b_branch2a (in-place)
I0831 09:31:53.255460 27242 net.cpp:150] Setting up res2b_branch2a_relu
I0831 09:31:53.255475 27242 net.cpp:157] Top shape: 12 64 128 128 (12582912)
I0831 09:31:53.255486 27242 net.cpp:165] Memory required for data: 2164260896
I0831 09:31:53.255506 27242 layer_factory.hpp:77] Creating layer res2b_branch2b
I0831 09:31:53.255553 27242 net.cpp:100] Creating Layer res2b_branch2b
I0831 09:31:53.255564 27242 net.cpp:434] res2b_branch2b <- res2b_branch2a
I0831 09:31:53.255586 27242 net.cpp:408] res2b_branch2b -> res2b_branch2b
I0831 09:31:53.256425 27242 net.cpp:150] Setting up res2b_branch2b
I0831 09:31:53.256445 27242 net.cpp:157] Top shape: 12 64 128 128 (12582912)
I0831 09:31:53.256458 27242 net.cpp:165] Memory required for data: 2214592544
I0831 09:31:53.256482 27242 layer_factory.hpp:77] Creating layer bn2b_branch2b
I0831 09:31:53.256500 27242 net.cpp:100] Creating Layer bn2b_branch2b
I0831 09:31:53.256512 27242 net.cpp:434] bn2b_branch2b <- res2b_branch2b
I0831 09:31:53.256549 27242 net.cpp:395] bn2b_branch2b -> res2b_branch2b (in-place)
I0831 09:31:53.256847 27242 net.cpp:150] Setting up bn2b_branch2b
I0831 09:31:53.256866 27242 net.cpp:157] Top shape: 12 64 128 128 (12582912)
I0831 09:31:53.256880 27242 net.cpp:165] Memory required for data: 2264924192
I0831 09:31:53.256922 27242 layer_factory.hpp:77] Creating layer scale2b_branch2b
I0831 09:31:53.256960 27242 net.cpp:100] Creating Layer scale2b_branch2b
I0831 09:31:53.256973 27242 net.cpp:434] scale2b_branch2b <- res2b_branch2b
I0831 09:31:53.257004 27242 net.cpp:395] scale2b_branch2b -> res2b_branch2b (in-place)
I0831 09:31:53.257087 27242 layer_factory.hpp:77] Creating layer scale2b_branch2b
I0831 09:31:53.257302 27242 net.cpp:150] Setting up scale2b_branch2b
I0831 09:31:53.257323 27242 net.cpp:157] Top shape: 12 64 128 128 (12582912)
I0831 09:31:53.257334 27242 net.cpp:165] Memory required for data: 2315255840
I0831 09:31:53.257361 27242 layer_factory.hpp:77] Creating layer res2b
I0831 09:31:53.257382 27242 net.cpp:100] Creating Layer res2b
I0831 09:31:53.257393 27242 net.cpp:434] res2b <- res2a_res2a_relu_0_split_1
I0831 09:31:53.257421 27242 net.cpp:434] res2b <- res2b_branch2b
I0831 09:31:53.257437 27242 net.cpp:408] res2b -> res2b
I0831 09:31:53.257495 27242 net.cpp:150] Setting up res2b
I0831 09:31:53.257520 27242 net.cpp:157] Top shape: 12 64 128 128 (12582912)
I0831 09:31:53.257544 27242 net.cpp:165] Memory required for data: 2365587488
I0831 09:31:53.257565 27242 layer_factory.hpp:77] Creating layer res2b_relu
I0831 09:31:53.257585 27242 net.cpp:100] Creating Layer res2b_relu
I0831 09:31:53.257596 27242 net.cpp:434] res2b_relu <- res2b
I0831 09:31:53.257620 27242 net.cpp:395] res2b_relu -> res2b (in-place)
I0831 09:31:53.257640 27242 net.cpp:150] Setting up res2b_relu
I0831 09:31:53.257663 27242 net.cpp:157] Top shape: 12 64 128 128 (12582912)
I0831 09:31:53.257675 27242 net.cpp:165] Memory required for data: 2415919136
I0831 09:31:53.257688 27242 layer_factory.hpp:77] Creating layer res2b_res2b_relu_0_split
I0831 09:31:53.257714 27242 net.cpp:100] Creating Layer res2b_res2b_relu_0_split
I0831 09:31:53.257725 27242 net.cpp:434] res2b_res2b_relu_0_split <- res2b
I0831 09:31:53.257820 27242 net.cpp:408] res2b_res2b_relu_0_split -> res2b_res2b_relu_0_split_0
I0831 09:31:53.257850 27242 net.cpp:408] res2b_res2b_relu_0_split -> res2b_res2b_relu_0_split_1
I0831 09:31:53.257921 27242 net.cpp:150] Setting up res2b_res2b_relu_0_split
I0831 09:31:53.257951 27242 net.cpp:157] Top shape: 12 64 128 128 (12582912)
I0831 09:31:53.257967 27242 net.cpp:157] Top shape: 12 64 128 128 (12582912)
I0831 09:31:53.257978 27242 net.cpp:165] Memory required for data: 2516582432
I0831 09:31:53.257988 27242 layer_factory.hpp:77] Creating layer res3a_branch1
I0831 09:31:53.258033 27242 net.cpp:100] Creating Layer res3a_branch1
I0831 09:31:53.258050 27242 net.cpp:434] res3a_branch1 <- res2b_res2b_relu_0_split_0
I0831 09:31:53.258065 27242 net.cpp:408] res3a_branch1 -> res3a_branch1
I0831 09:31:53.259316 27242 net.cpp:150] Setting up res3a_branch1
I0831 09:31:53.259338 27242 net.cpp:157] Top shape: 12 128 64 64 (6291456)
I0831 09:31:53.259344 27242 net.cpp:165] Memory required for data: 2541748256
I0831 09:31:53.259354 27242 layer_factory.hpp:77] Creating layer bn3a_branch1
I0831 09:31:53.259380 27242 net.cpp:100] Creating Layer bn3a_branch1
I0831 09:31:53.259390 27242 net.cpp:434] bn3a_branch1 <- res3a_branch1
I0831 09:31:53.259400 27242 net.cpp:395] bn3a_branch1 -> res3a_branch1 (in-place)
I0831 09:31:53.259670 27242 net.cpp:150] Setting up bn3a_branch1
I0831 09:31:53.259686 27242 net.cpp:157] Top shape: 12 128 64 64 (6291456)
I0831 09:31:53.259692 27242 net.cpp:165] Memory required for data: 2566914080
I0831 09:31:53.259706 27242 layer_factory.hpp:77] Creating layer scale3a_branch1
I0831 09:31:53.259723 27242 net.cpp:100] Creating Layer scale3a_branch1
I0831 09:31:53.259732 27242 net.cpp:434] scale3a_branch1 <- res3a_branch1
I0831 09:31:53.259745 27242 net.cpp:395] scale3a_branch1 -> res3a_branch1 (in-place)
I0831 09:31:53.259831 27242 layer_factory.hpp:77] Creating layer scale3a_branch1
I0831 09:31:53.260006 27242 net.cpp:150] Setting up scale3a_branch1
I0831 09:31:53.260028 27242 net.cpp:157] Top shape: 12 128 64 64 (6291456)
I0831 09:31:53.260041 27242 net.cpp:165] Memory required for data: 2592079904
I0831 09:31:53.260082 27242 layer_factory.hpp:77] Creating layer res3a_branch2a
I0831 09:31:53.260107 27242 net.cpp:100] Creating Layer res3a_branch2a
I0831 09:31:53.260126 27242 net.cpp:434] res3a_branch2a <- res2b_res2b_relu_0_split_1
I0831 09:31:53.260154 27242 net.cpp:408] res3a_branch2a -> res3a_branch2a
I0831 09:31:53.262846 27242 net.cpp:150] Setting up res3a_branch2a
I0831 09:31:53.262902 27242 net.cpp:157] Top shape: 12 128 64 64 (6291456)
I0831 09:31:53.262913 27242 net.cpp:165] Memory required for data: 2617245728
I0831 09:31:53.262934 27242 layer_factory.hpp:77] Creating layer bn3a_branch2a
I0831 09:31:53.262950 27242 net.cpp:100] Creating Layer bn3a_branch2a
I0831 09:31:53.262959 27242 net.cpp:434] bn3a_branch2a <- res3a_branch2a
I0831 09:31:53.262975 27242 net.cpp:395] bn3a_branch2a -> res3a_branch2a (in-place)
I0831 09:31:53.263238 27242 net.cpp:150] Setting up bn3a_branch2a
I0831 09:31:53.263267 27242 net.cpp:157] Top shape: 12 128 64 64 (6291456)
I0831 09:31:53.263274 27242 net.cpp:165] Memory required for data: 2642411552
I0831 09:31:53.263293 27242 layer_factory.hpp:77] Creating layer scale3a_branch2a
I0831 09:31:53.263308 27242 net.cpp:100] Creating Layer scale3a_branch2a
I0831 09:31:53.263321 27242 net.cpp:434] scale3a_branch2a <- res3a_branch2a
I0831 09:31:53.263384 27242 net.cpp:395] scale3a_branch2a -> res3a_branch2a (in-place)
I0831 09:31:53.263487 27242 layer_factory.hpp:77] Creating layer scale3a_branch2a
I0831 09:31:53.263694 27242 net.cpp:150] Setting up scale3a_branch2a
I0831 09:31:53.263712 27242 net.cpp:157] Top shape: 12 128 64 64 (6291456)
I0831 09:31:53.263720 27242 net.cpp:165] Memory required for data: 2667577376
I0831 09:31:53.263739 27242 layer_factory.hpp:77] Creating layer res3a_branch2a_relu
I0831 09:31:53.263768 27242 net.cpp:100] Creating Layer res3a_branch2a_relu
I0831 09:31:53.263779 27242 net.cpp:434] res3a_branch2a_relu <- res3a_branch2a
I0831 09:31:53.263826 27242 net.cpp:395] res3a_branch2a_relu -> res3a_branch2a (in-place)
I0831 09:31:53.263856 27242 net.cpp:150] Setting up res3a_branch2a_relu
I0831 09:31:53.263883 27242 net.cpp:157] Top shape: 12 128 64 64 (6291456)
I0831 09:31:53.263901 27242 net.cpp:165] Memory required for data: 2692743200
I0831 09:31:53.263914 27242 layer_factory.hpp:77] Creating layer res3a_branch2b
I0831 09:31:53.263950 27242 net.cpp:100] Creating Layer res3a_branch2b
I0831 09:31:53.263962 27242 net.cpp:434] res3a_branch2b <- res3a_branch2a
I0831 09:31:53.263983 27242 net.cpp:408] res3a_branch2b -> res3a_branch2b
I0831 09:31:53.266602 27242 net.cpp:150] Setting up res3a_branch2b
I0831 09:31:53.266628 27242 net.cpp:157] Top shape: 12 128 64 64 (6291456)
I0831 09:31:53.266633 27242 net.cpp:165] Memory required for data: 2717909024
I0831 09:31:53.266644 27242 layer_factory.hpp:77] Creating layer bn3a_branch2b
I0831 09:31:53.266657 27242 net.cpp:100] Creating Layer bn3a_branch2b
I0831 09:31:53.266671 27242 net.cpp:434] bn3a_branch2b <- res3a_branch2b
I0831 09:31:53.266702 27242 net.cpp:395] bn3a_branch2b -> res3a_branch2b (in-place)
I0831 09:31:53.266991 27242 net.cpp:150] Setting up bn3a_branch2b
I0831 09:31:53.267009 27242 net.cpp:157] Top shape: 12 128 64 64 (6291456)
I0831 09:31:53.267019 27242 net.cpp:165] Memory required for data: 2743074848
I0831 09:31:53.267045 27242 layer_factory.hpp:77] Creating layer scale3a_branch2b
I0831 09:31:53.267060 27242 net.cpp:100] Creating Layer scale3a_branch2b
I0831 09:31:53.267068 27242 net.cpp:434] scale3a_branch2b <- res3a_branch2b
I0831 09:31:53.267082 27242 net.cpp:395] scale3a_branch2b -> res3a_branch2b (in-place)
I0831 09:31:53.267163 27242 layer_factory.hpp:77] Creating layer scale3a_branch2b
I0831 09:31:53.267335 27242 net.cpp:150] Setting up scale3a_branch2b
I0831 09:31:53.267352 27242 net.cpp:157] Top shape: 12 128 64 64 (6291456)
I0831 09:31:53.267359 27242 net.cpp:165] Memory required for data: 2768240672
I0831 09:31:53.267369 27242 layer_factory.hpp:77] Creating layer res3a
I0831 09:31:53.267385 27242 net.cpp:100] Creating Layer res3a
I0831 09:31:53.267395 27242 net.cpp:434] res3a <- res3a_branch1
I0831 09:31:53.267402 27242 net.cpp:434] res3a <- res3a_branch2b
I0831 09:31:53.267412 27242 net.cpp:408] res3a -> res3a
I0831 09:31:53.267474 27242 net.cpp:150] Setting up res3a
I0831 09:31:53.267494 27242 net.cpp:157] Top shape: 12 128 64 64 (6291456)
I0831 09:31:53.267501 27242 net.cpp:165] Memory required for data: 2793406496
I0831 09:31:53.267508 27242 layer_factory.hpp:77] Creating layer res3a_relu
I0831 09:31:53.267518 27242 net.cpp:100] Creating Layer res3a_relu
I0831 09:31:53.267524 27242 net.cpp:434] res3a_relu <- res3a
I0831 09:31:53.267546 27242 net.cpp:395] res3a_relu -> res3a (in-place)
I0831 09:31:53.267560 27242 net.cpp:150] Setting up res3a_relu
I0831 09:31:53.267586 27242 net.cpp:157] Top shape: 12 128 64 64 (6291456)
I0831 09:31:53.267597 27242 net.cpp:165] Memory required for data: 2818572320
I0831 09:31:53.267606 27242 layer_factory.hpp:77] Creating layer res3a_res3a_relu_0_split
I0831 09:31:53.267623 27242 net.cpp:100] Creating Layer res3a_res3a_relu_0_split
I0831 09:31:53.267638 27242 net.cpp:434] res3a_res3a_relu_0_split <- res3a
I0831 09:31:53.267650 27242 net.cpp:408] res3a_res3a_relu_0_split -> res3a_res3a_relu_0_split_0
I0831 09:31:53.267668 27242 net.cpp:408] res3a_res3a_relu_0_split -> res3a_res3a_relu_0_split_1
I0831 09:31:53.267750 27242 net.cpp:150] Setting up res3a_res3a_relu_0_split
I0831 09:31:53.267769 27242 net.cpp:157] Top shape: 12 128 64 64 (6291456)
I0831 09:31:53.267789 27242 net.cpp:157] Top shape: 12 128 64 64 (6291456)
I0831 09:31:53.267801 27242 net.cpp:165] Memory required for data: 2868903968
I0831 09:31:53.267810 27242 layer_factory.hpp:77] Creating layer res3b_branch2a
I0831 09:31:53.267843 27242 net.cpp:100] Creating Layer res3b_branch2a
I0831 09:31:53.267853 27242 net.cpp:434] res3b_branch2a <- res3a_res3a_relu_0_split_0
I0831 09:31:53.267879 27242 net.cpp:408] res3b_branch2a -> res3b_branch2a
I0831 09:31:53.277012 27242 net.cpp:150] Setting up res3b_branch2a
I0831 09:31:53.277093 27242 net.cpp:157] Top shape: 12 128 64 64 (6291456)
I0831 09:31:53.277102 27242 net.cpp:165] Memory required for data: 2894069792
I0831 09:31:53.277117 27242 layer_factory.hpp:77] Creating layer bn3b_branch2a
I0831 09:31:53.277137 27242 net.cpp:100] Creating Layer bn3b_branch2a
I0831 09:31:53.277148 27242 net.cpp:434] bn3b_branch2a <- res3b_branch2a
I0831 09:31:53.277161 27242 net.cpp:395] bn3b_branch2a -> res3b_branch2a (in-place)
I0831 09:31:53.292348 27242 net.cpp:150] Setting up bn3b_branch2a
I0831 09:31:53.292403 27242 net.cpp:157] Top shape: 12 128 64 64 (6291456)
I0831 09:31:53.292412 27242 net.cpp:165] Memory required for data: 2919235616
I0831 09:31:53.292438 27242 layer_factory.hpp:77] Creating layer scale3b_branch2a
I0831 09:31:53.292459 27242 net.cpp:100] Creating Layer scale3b_branch2a
I0831 09:31:53.292469 27242 net.cpp:434] scale3b_branch2a <- res3b_branch2a
I0831 09:31:53.292484 27242 net.cpp:395] scale3b_branch2a -> res3b_branch2a (in-place)
I0831 09:31:53.292565 27242 layer_factory.hpp:77] Creating layer scale3b_branch2a
I0831 09:31:53.292783 27242 net.cpp:150] Setting up scale3b_branch2a
I0831 09:31:53.292801 27242 net.cpp:157] Top shape: 12 128 64 64 (6291456)
I0831 09:31:53.292807 27242 net.cpp:165] Memory required for data: 2944401440
I0831 09:31:53.292819 27242 layer_factory.hpp:77] Creating layer res3b_branch2a_relu
I0831 09:31:53.292834 27242 net.cpp:100] Creating Layer res3b_branch2a_relu
I0831 09:31:53.292843 27242 net.cpp:434] res3b_branch2a_relu <- res3b_branch2a
I0831 09:31:53.292855 27242 net.cpp:395] res3b_branch2a_relu -> res3b_branch2a (in-place)
I0831 09:31:53.292870 27242 net.cpp:150] Setting up res3b_branch2a_relu
I0831 09:31:53.292879 27242 net.cpp:157] Top shape: 12 128 64 64 (6291456)
I0831 09:31:53.292886 27242 net.cpp:165] Memory required for data: 2969567264
I0831 09:31:53.292891 27242 layer_factory.hpp:77] Creating layer res3b_branch2b
I0831 09:31:53.292907 27242 net.cpp:100] Creating Layer res3b_branch2b
I0831 09:31:53.292915 27242 net.cpp:434] res3b_branch2b <- res3b_branch2a
I0831 09:31:53.292928 27242 net.cpp:408] res3b_branch2b -> res3b_branch2b
I0831 09:31:53.296278 27242 net.cpp:150] Setting up res3b_branch2b
I0831 09:31:53.296305 27242 net.cpp:157] Top shape: 12 128 64 64 (6291456)
I0831 09:31:53.296311 27242 net.cpp:165] Memory required for data: 2994733088
I0831 09:31:53.296322 27242 layer_factory.hpp:77] Creating layer bn3b_branch2b
I0831 09:31:53.296339 27242 net.cpp:100] Creating Layer bn3b_branch2b
I0831 09:31:53.296347 27242 net.cpp:434] bn3b_branch2b <- res3b_branch2b
I0831 09:31:53.296361 27242 net.cpp:395] bn3b_branch2b -> res3b_branch2b (in-place)
I0831 09:31:53.296602 27242 net.cpp:150] Setting up bn3b_branch2b
I0831 09:31:53.296628 27242 net.cpp:157] Top shape: 12 128 64 64 (6291456)
I0831 09:31:53.296643 27242 net.cpp:165] Memory required for data: 3019898912
I0831 09:31:53.296666 27242 layer_factory.hpp:77] Creating layer scale3b_branch2b
I0831 09:31:53.296682 27242 net.cpp:100] Creating Layer scale3b_branch2b
I0831 09:31:53.296691 27242 net.cpp:434] scale3b_branch2b <- res3b_branch2b
I0831 09:31:53.296708 27242 net.cpp:395] scale3b_branch2b -> res3b_branch2b (in-place)
I0831 09:31:53.296777 27242 layer_factory.hpp:77] Creating layer scale3b_branch2b
I0831 09:31:53.296931 27242 net.cpp:150] Setting up scale3b_branch2b
I0831 09:31:53.296947 27242 net.cpp:157] Top shape: 12 128 64 64 (6291456)
I0831 09:31:53.296953 27242 net.cpp:165] Memory required for data: 3045064736
I0831 09:31:53.296981 27242 layer_factory.hpp:77] Creating layer res3b
I0831 09:31:53.296998 27242 net.cpp:100] Creating Layer res3b
I0831 09:31:53.297006 27242 net.cpp:434] res3b <- res3a_res3a_relu_0_split_1
I0831 09:31:53.297016 27242 net.cpp:434] res3b <- res3b_branch2b
I0831 09:31:53.297027 27242 net.cpp:408] res3b -> res3b
I0831 09:31:53.297077 27242 net.cpp:150] Setting up res3b
I0831 09:31:53.297092 27242 net.cpp:157] Top shape: 12 128 64 64 (6291456)
I0831 09:31:53.297099 27242 net.cpp:165] Memory required for data: 3070230560
I0831 09:31:53.297133 27242 layer_factory.hpp:77] Creating layer res3b_relu
I0831 09:31:53.297144 27242 net.cpp:100] Creating Layer res3b_relu
I0831 09:31:53.297152 27242 net.cpp:434] res3b_relu <- res3b
I0831 09:31:53.297163 27242 net.cpp:395] res3b_relu -> res3b (in-place)
I0831 09:31:53.297175 27242 net.cpp:150] Setting up res3b_relu
I0831 09:31:53.297184 27242 net.cpp:157] Top shape: 12 128 64 64 (6291456)
I0831 09:31:53.297192 27242 net.cpp:165] Memory required for data: 3095396384
I0831 09:31:53.297199 27242 layer_factory.hpp:77] Creating layer res3b_res3b_relu_0_split
I0831 09:31:53.297209 27242 net.cpp:100] Creating Layer res3b_res3b_relu_0_split
I0831 09:31:53.297217 27242 net.cpp:434] res3b_res3b_relu_0_split <- res3b
I0831 09:31:53.297226 27242 net.cpp:408] res3b_res3b_relu_0_split -> res3b_res3b_relu_0_split_0
I0831 09:31:53.297240 27242 net.cpp:408] res3b_res3b_relu_0_split -> res3b_res3b_relu_0_split_1
I0831 09:31:53.297293 27242 net.cpp:150] Setting up res3b_res3b_relu_0_split
I0831 09:31:53.297307 27242 net.cpp:157] Top shape: 12 128 64 64 (6291456)
I0831 09:31:53.297315 27242 net.cpp:157] Top shape: 12 128 64 64 (6291456)
I0831 09:31:53.297320 27242 net.cpp:165] Memory required for data: 3145728032
I0831 09:31:53.297327 27242 layer_factory.hpp:77] Creating layer res4a_branch1
I0831 09:31:53.297343 27242 net.cpp:100] Creating Layer res4a_branch1
I0831 09:31:53.297353 27242 net.cpp:434] res4a_branch1 <- res3b_res3b_relu_0_split_0
I0831 09:31:53.297365 27242 net.cpp:408] res4a_branch1 -> res4a_branch1
I0831 09:31:53.298142 27242 net.cpp:150] Setting up res4a_branch1
I0831 09:31:53.298161 27242 net.cpp:157] Top shape: 12 256 32 32 (3145728)
I0831 09:31:53.298166 27242 net.cpp:165] Memory required for data: 3158310944
I0831 09:31:53.298175 27242 layer_factory.hpp:77] Creating layer bn4a_branch1
I0831 09:31:53.298187 27242 net.cpp:100] Creating Layer bn4a_branch1
I0831 09:31:53.298194 27242 net.cpp:434] bn4a_branch1 <- res4a_branch1
I0831 09:31:53.298207 27242 net.cpp:395] bn4a_branch1 -> res4a_branch1 (in-place)
I0831 09:31:53.299242 27242 net.cpp:150] Setting up bn4a_branch1
I0831 09:31:53.299263 27242 net.cpp:157] Top shape: 12 256 32 32 (3145728)
I0831 09:31:53.299269 27242 net.cpp:165] Memory required for data: 3170893856
I0831 09:31:53.299284 27242 layer_factory.hpp:77] Creating layer scale4a_branch1
I0831 09:31:53.299301 27242 net.cpp:100] Creating Layer scale4a_branch1
I0831 09:31:53.299311 27242 net.cpp:434] scale4a_branch1 <- res4a_branch1
I0831 09:31:53.299321 27242 net.cpp:395] scale4a_branch1 -> res4a_branch1 (in-place)
I0831 09:31:53.299391 27242 layer_factory.hpp:77] Creating layer scale4a_branch1
I0831 09:31:53.299535 27242 net.cpp:150] Setting up scale4a_branch1
I0831 09:31:53.299551 27242 net.cpp:157] Top shape: 12 256 32 32 (3145728)
I0831 09:31:53.299557 27242 net.cpp:165] Memory required for data: 3183476768
I0831 09:31:53.299568 27242 layer_factory.hpp:77] Creating layer res4a_branch2a
I0831 09:31:53.299587 27242 net.cpp:100] Creating Layer res4a_branch2a
I0831 09:31:53.299597 27242 net.cpp:434] res4a_branch2a <- res3b_res3b_relu_0_split_1
I0831 09:31:53.299610 27242 net.cpp:408] res4a_branch2a -> res4a_branch2a
I0831 09:31:53.305202 27242 net.cpp:150] Setting up res4a_branch2a
I0831 09:31:53.305245 27242 net.cpp:157] Top shape: 12 256 32 32 (3145728)
I0831 09:31:53.305253 27242 net.cpp:165] Memory required for data: 3196059680
I0831 09:31:53.305265 27242 layer_factory.hpp:77] Creating layer bn4a_branch2a
I0831 09:31:53.305281 27242 net.cpp:100] Creating Layer bn4a_branch2a
I0831 09:31:53.305290 27242 net.cpp:434] bn4a_branch2a <- res4a_branch2a
I0831 09:31:53.305301 27242 net.cpp:395] bn4a_branch2a -> res4a_branch2a (in-place)
I0831 09:31:53.305549 27242 net.cpp:150] Setting up bn4a_branch2a
I0831 09:31:53.305565 27242 net.cpp:157] Top shape: 12 256 32 32 (3145728)
I0831 09:31:53.305572 27242 net.cpp:165] Memory required for data: 3208642592
I0831 09:31:53.305585 27242 layer_factory.hpp:77] Creating layer scale4a_branch2a
I0831 09:31:53.305603 27242 net.cpp:100] Creating Layer scale4a_branch2a
I0831 09:31:53.305631 27242 net.cpp:434] scale4a_branch2a <- res4a_branch2a
I0831 09:31:53.305644 27242 net.cpp:395] scale4a_branch2a -> res4a_branch2a (in-place)
I0831 09:31:53.305719 27242 layer_factory.hpp:77] Creating layer scale4a_branch2a
I0831 09:31:53.305867 27242 net.cpp:150] Setting up scale4a_branch2a
I0831 09:31:53.305882 27242 net.cpp:157] Top shape: 12 256 32 32 (3145728)
I0831 09:31:53.305888 27242 net.cpp:165] Memory required for data: 3221225504
I0831 09:31:53.305899 27242 layer_factory.hpp:77] Creating layer res4a_branch2a_relu
I0831 09:31:53.305917 27242 net.cpp:100] Creating Layer res4a_branch2a_relu
I0831 09:31:53.305924 27242 net.cpp:434] res4a_branch2a_relu <- res4a_branch2a
I0831 09:31:53.305934 27242 net.cpp:395] res4a_branch2a_relu -> res4a_branch2a (in-place)
I0831 09:31:53.305948 27242 net.cpp:150] Setting up res4a_branch2a_relu
I0831 09:31:53.305958 27242 net.cpp:157] Top shape: 12 256 32 32 (3145728)
I0831 09:31:53.305963 27242 net.cpp:165] Memory required for data: 3233808416
I0831 09:31:53.305969 27242 layer_factory.hpp:77] Creating layer res4a_branch2b
I0831 09:31:53.305987 27242 net.cpp:100] Creating Layer res4a_branch2b
I0831 09:31:53.305995 27242 net.cpp:434] res4a_branch2b <- res4a_branch2a
I0831 09:31:53.306008 27242 net.cpp:408] res4a_branch2b -> res4a_branch2b
I0831 09:31:53.317827 27242 net.cpp:150] Setting up res4a_branch2b
I0831 09:31:53.317878 27242 net.cpp:157] Top shape: 12 256 32 32 (3145728)
I0831 09:31:53.317888 27242 net.cpp:165] Memory required for data: 3246391328
I0831 09:31:53.317904 27242 layer_factory.hpp:77] Creating layer bn4a_branch2b
I0831 09:31:53.317929 27242 net.cpp:100] Creating Layer bn4a_branch2b
I0831 09:31:53.317943 27242 net.cpp:434] bn4a_branch2b <- res4a_branch2b
I0831 09:31:53.317971 27242 net.cpp:395] bn4a_branch2b -> res4a_branch2b (in-place)
I0831 09:31:53.318326 27242 net.cpp:150] Setting up bn4a_branch2b
I0831 09:31:53.318346 27242 net.cpp:157] Top shape: 12 256 32 32 (3145728)
I0831 09:31:53.318359 27242 net.cpp:165] Memory required for data: 3258974240
I0831 09:31:53.318378 27242 layer_factory.hpp:77] Creating layer scale4a_branch2b
I0831 09:31:53.318400 27242 net.cpp:100] Creating Layer scale4a_branch2b
I0831 09:31:53.318413 27242 net.cpp:434] scale4a_branch2b <- res4a_branch2b
I0831 09:31:53.318431 27242 net.cpp:395] scale4a_branch2b -> res4a_branch2b (in-place)
I0831 09:31:53.318521 27242 layer_factory.hpp:77] Creating layer scale4a_branch2b
I0831 09:31:53.318742 27242 net.cpp:150] Setting up scale4a_branch2b
I0831 09:31:53.318763 27242 net.cpp:157] Top shape: 12 256 32 32 (3145728)
I0831 09:31:53.318773 27242 net.cpp:165] Memory required for data: 3271557152
I0831 09:31:53.318789 27242 layer_factory.hpp:77] Creating layer res4a
I0831 09:31:53.318825 27242 net.cpp:100] Creating Layer res4a
I0831 09:31:53.318842 27242 net.cpp:434] res4a <- res4a_branch1
I0831 09:31:53.318853 27242 net.cpp:434] res4a <- res4a_branch2b
I0831 09:31:53.318869 27242 net.cpp:408] res4a -> res4a
I0831 09:31:53.318922 27242 net.cpp:150] Setting up res4a
I0831 09:31:53.318941 27242 net.cpp:157] Top shape: 12 256 32 32 (3145728)
I0831 09:31:53.318954 27242 net.cpp:165] Memory required for data: 3284140064
I0831 09:31:53.318964 27242 layer_factory.hpp:77] Creating layer res4a_relu
I0831 09:31:53.318984 27242 net.cpp:100] Creating Layer res4a_relu
I0831 09:31:53.318998 27242 net.cpp:434] res4a_relu <- res4a
I0831 09:31:53.319012 27242 net.cpp:395] res4a_relu -> res4a (in-place)
I0831 09:31:53.319034 27242 net.cpp:150] Setting up res4a_relu
I0831 09:31:53.319049 27242 net.cpp:157] Top shape: 12 256 32 32 (3145728)
I0831 09:31:53.319059 27242 net.cpp:165] Memory required for data: 3296722976
I0831 09:31:53.319066 27242 layer_factory.hpp:77] Creating layer res4a_res4a_relu_0_split
I0831 09:31:53.319080 27242 net.cpp:100] Creating Layer res4a_res4a_relu_0_split
I0831 09:31:53.319089 27242 net.cpp:434] res4a_res4a_relu_0_split <- res4a
I0831 09:31:53.319104 27242 net.cpp:408] res4a_res4a_relu_0_split -> res4a_res4a_relu_0_split_0
I0831 09:31:53.319123 27242 net.cpp:408] res4a_res4a_relu_0_split -> res4a_res4a_relu_0_split_1
I0831 09:31:53.319226 27242 net.cpp:150] Setting up res4a_res4a_relu_0_split
I0831 09:31:53.319248 27242 net.cpp:157] Top shape: 12 256 32 32 (3145728)
I0831 09:31:53.319262 27242 net.cpp:157] Top shape: 12 256 32 32 (3145728)
I0831 09:31:53.319275 27242 net.cpp:165] Memory required for data: 3321888800
I0831 09:31:53.319286 27242 layer_factory.hpp:77] Creating layer res4b_branch2a
I0831 09:31:53.319313 27242 net.cpp:100] Creating Layer res4b_branch2a
I0831 09:31:53.319326 27242 net.cpp:434] res4b_branch2a <- res4a_res4a_relu_0_split_0
I0831 09:31:53.319346 27242 net.cpp:408] res4b_branch2a -> res4b_branch2a
I0831 09:31:53.330691 27242 net.cpp:150] Setting up res4b_branch2a
I0831 09:31:53.330724 27242 net.cpp:157] Top shape: 12 256 32 32 (3145728)
I0831 09:31:53.330729 27242 net.cpp:165] Memory required for data: 3334471712
I0831 09:31:53.330741 27242 layer_factory.hpp:77] Creating layer bn4b_branch2a
I0831 09:31:53.330757 27242 net.cpp:100] Creating Layer bn4b_branch2a
I0831 09:31:53.330768 27242 net.cpp:434] bn4b_branch2a <- res4b_branch2a
I0831 09:31:53.330778 27242 net.cpp:395] bn4b_branch2a -> res4b_branch2a (in-place)
I0831 09:31:53.331024 27242 net.cpp:150] Setting up bn4b_branch2a
I0831 09:31:53.331040 27242 net.cpp:157] Top shape: 12 256 32 32 (3145728)
I0831 09:31:53.331046 27242 net.cpp:165] Memory required for data: 3347054624
I0831 09:31:53.331060 27242 layer_factory.hpp:77] Creating layer scale4b_branch2a
I0831 09:31:53.331077 27242 net.cpp:100] Creating Layer scale4b_branch2a
I0831 09:31:53.331085 27242 net.cpp:434] scale4b_branch2a <- res4b_branch2a
I0831 09:31:53.331095 27242 net.cpp:395] scale4b_branch2a -> res4b_branch2a (in-place)
I0831 09:31:53.331162 27242 layer_factory.hpp:77] Creating layer scale4b_branch2a
I0831 09:31:53.331320 27242 net.cpp:150] Setting up scale4b_branch2a
I0831 09:31:53.331336 27242 net.cpp:157] Top shape: 12 256 32 32 (3145728)
I0831 09:31:53.331341 27242 net.cpp:165] Memory required for data: 3359637536
I0831 09:31:53.331352 27242 layer_factory.hpp:77] Creating layer res4b_branch2a_relu
I0831 09:31:53.331364 27242 net.cpp:100] Creating Layer res4b_branch2a_relu
I0831 09:31:53.331372 27242 net.cpp:434] res4b_branch2a_relu <- res4b_branch2a
I0831 09:31:53.331384 27242 net.cpp:395] res4b_branch2a_relu -> res4b_branch2a (in-place)
I0831 09:31:53.331398 27242 net.cpp:150] Setting up res4b_branch2a_relu
I0831 09:31:53.331408 27242 net.cpp:157] Top shape: 12 256 32 32 (3145728)
I0831 09:31:53.331413 27242 net.cpp:165] Memory required for data: 3372220448
I0831 09:31:53.331419 27242 layer_factory.hpp:77] Creating layer res4b_branch2b
I0831 09:31:53.331436 27242 net.cpp:100] Creating Layer res4b_branch2b
I0831 09:31:53.331444 27242 net.cpp:434] res4b_branch2b <- res4b_branch2a
I0831 09:31:53.331455 27242 net.cpp:408] res4b_branch2b -> res4b_branch2b
I0831 09:31:53.341958 27242 net.cpp:150] Setting up res4b_branch2b
I0831 09:31:53.342001 27242 net.cpp:157] Top shape: 12 256 32 32 (3145728)
I0831 09:31:53.342007 27242 net.cpp:165] Memory required for data: 3384803360
I0831 09:31:53.342021 27242 layer_factory.hpp:77] Creating layer bn4b_branch2b
I0831 09:31:53.342037 27242 net.cpp:100] Creating Layer bn4b_branch2b
I0831 09:31:53.342047 27242 net.cpp:434] bn4b_branch2b <- res4b_branch2b
I0831 09:31:53.342059 27242 net.cpp:395] bn4b_branch2b -> res4b_branch2b (in-place)
I0831 09:31:53.342320 27242 net.cpp:150] Setting up bn4b_branch2b
I0831 09:31:53.342336 27242 net.cpp:157] Top shape: 12 256 32 32 (3145728)
I0831 09:31:53.342342 27242 net.cpp:165] Memory required for data: 3397386272
I0831 09:31:53.342356 27242 layer_factory.hpp:77] Creating layer scale4b_branch2b
I0831 09:31:53.342372 27242 net.cpp:100] Creating Layer scale4b_branch2b
I0831 09:31:53.342381 27242 net.cpp:434] scale4b_branch2b <- res4b_branch2b
I0831 09:31:53.342391 27242 net.cpp:395] scale4b_branch2b -> res4b_branch2b (in-place)
I0831 09:31:53.342463 27242 layer_factory.hpp:77] Creating layer scale4b_branch2b
I0831 09:31:53.342615 27242 net.cpp:150] Setting up scale4b_branch2b
I0831 09:31:53.342651 27242 net.cpp:157] Top shape: 12 256 32 32 (3145728)
I0831 09:31:53.342660 27242 net.cpp:165] Memory required for data: 3409969184
I0831 09:31:53.342671 27242 layer_factory.hpp:77] Creating layer res4b
I0831 09:31:53.342684 27242 net.cpp:100] Creating Layer res4b
I0831 09:31:53.342692 27242 net.cpp:434] res4b <- res4a_res4a_relu_0_split_1
I0831 09:31:53.342701 27242 net.cpp:434] res4b <- res4b_branch2b
I0831 09:31:53.342717 27242 net.cpp:408] res4b -> res4b
I0831 09:31:53.342758 27242 net.cpp:150] Setting up res4b
I0831 09:31:53.342772 27242 net.cpp:157] Top shape: 12 256 32 32 (3145728)
I0831 09:31:53.342778 27242 net.cpp:165] Memory required for data: 3422552096
I0831 09:31:53.342784 27242 layer_factory.hpp:77] Creating layer res4b_relu
I0831 09:31:53.342798 27242 net.cpp:100] Creating Layer res4b_relu
I0831 09:31:53.342808 27242 net.cpp:434] res4b_relu <- res4b
I0831 09:31:53.342816 27242 net.cpp:395] res4b_relu -> res4b (in-place)
I0831 09:31:53.342829 27242 net.cpp:150] Setting up res4b_relu
I0831 09:31:53.342840 27242 net.cpp:157] Top shape: 12 256 32 32 (3145728)
I0831 09:31:53.342845 27242 net.cpp:165] Memory required for data: 3435135008
I0831 09:31:53.342851 27242 layer_factory.hpp:77] Creating layer res4b_res4b_relu_0_split
I0831 09:31:53.342861 27242 net.cpp:100] Creating Layer res4b_res4b_relu_0_split
I0831 09:31:53.342869 27242 net.cpp:434] res4b_res4b_relu_0_split <- res4b
I0831 09:31:53.342880 27242 net.cpp:408] res4b_res4b_relu_0_split -> res4b_res4b_relu_0_split_0
I0831 09:31:53.342896 27242 net.cpp:408] res4b_res4b_relu_0_split -> res4b_res4b_relu_0_split_1
I0831 09:31:53.342911 27242 net.cpp:408] res4b_res4b_relu_0_split -> res4b_res4b_relu_0_split_2
I0831 09:31:53.342923 27242 net.cpp:408] res4b_res4b_relu_0_split -> res4b_res4b_relu_0_split_3
I0831 09:31:53.342936 27242 net.cpp:408] res4b_res4b_relu_0_split -> res4b_res4b_relu_0_split_4
I0831 09:31:53.343034 27242 net.cpp:150] Setting up res4b_res4b_relu_0_split
I0831 09:31:53.343047 27242 net.cpp:157] Top shape: 12 256 32 32 (3145728)
I0831 09:31:53.343055 27242 net.cpp:157] Top shape: 12 256 32 32 (3145728)
I0831 09:31:53.343065 27242 net.cpp:157] Top shape: 12 256 32 32 (3145728)
I0831 09:31:53.343072 27242 net.cpp:157] Top shape: 12 256 32 32 (3145728)
I0831 09:31:53.343080 27242 net.cpp:157] Top shape: 12 256 32 32 (3145728)
I0831 09:31:53.343086 27242 net.cpp:165] Memory required for data: 3498049568
I0831 09:31:53.343091 27242 layer_factory.hpp:77] Creating layer res5a_branch1
I0831 09:31:53.343111 27242 net.cpp:100] Creating Layer res5a_branch1
I0831 09:31:53.343119 27242 net.cpp:434] res5a_branch1 <- res4b_res4b_relu_0_split_0
I0831 09:31:53.343132 27242 net.cpp:408] res5a_branch1 -> res5a_branch1
I0831 09:31:53.348088 27242 net.cpp:150] Setting up res5a_branch1
I0831 09:31:53.348116 27242 net.cpp:157] Top shape: 12 512 16 16 (1572864)
I0831 09:31:53.348124 27242 net.cpp:165] Memory required for data: 3504341024
I0831 09:31:53.348135 27242 layer_factory.hpp:77] Creating layer bn5a_branch1
I0831 09:31:53.348151 27242 net.cpp:100] Creating Layer bn5a_branch1
I0831 09:31:53.348161 27242 net.cpp:434] bn5a_branch1 <- res5a_branch1
I0831 09:31:53.348171 27242 net.cpp:395] bn5a_branch1 -> res5a_branch1 (in-place)
I0831 09:31:53.348425 27242 net.cpp:150] Setting up bn5a_branch1
I0831 09:31:53.348443 27242 net.cpp:157] Top shape: 12 512 16 16 (1572864)
I0831 09:31:53.348448 27242 net.cpp:165] Memory required for data: 3510632480
I0831 09:31:53.348462 27242 layer_factory.hpp:77] Creating layer scale5a_branch1
I0831 09:31:53.348479 27242 net.cpp:100] Creating Layer scale5a_branch1
I0831 09:31:53.348487 27242 net.cpp:434] scale5a_branch1 <- res5a_branch1
I0831 09:31:53.348498 27242 net.cpp:395] scale5a_branch1 -> res5a_branch1 (in-place)
I0831 09:31:53.348563 27242 layer_factory.hpp:77] Creating layer scale5a_branch1
I0831 09:31:53.348762 27242 net.cpp:150] Setting up scale5a_branch1
I0831 09:31:53.348779 27242 net.cpp:157] Top shape: 12 512 16 16 (1572864)
I0831 09:31:53.348785 27242 net.cpp:165] Memory required for data: 3516923936
I0831 09:31:53.348817 27242 layer_factory.hpp:77] Creating layer res5a_branch2a
I0831 09:31:53.348839 27242 net.cpp:100] Creating Layer res5a_branch2a
I0831 09:31:53.348850 27242 net.cpp:434] res5a_branch2a <- res4b_res4b_relu_0_split_1
I0831 09:31:53.348863 27242 net.cpp:408] res5a_branch2a -> res5a_branch2a
I0831 09:31:53.402524 27242 net.cpp:150] Setting up res5a_branch2a
I0831 09:31:53.402575 27242 net.cpp:157] Top shape: 12 512 16 16 (1572864)
I0831 09:31:53.402582 27242 net.cpp:165] Memory required for data: 3523215392
I0831 09:31:53.402597 27242 layer_factory.hpp:77] Creating layer bn5a_branch2a
I0831 09:31:53.402618 27242 net.cpp:100] Creating Layer bn5a_branch2a
I0831 09:31:53.402632 27242 net.cpp:434] bn5a_branch2a <- res5a_branch2a
I0831 09:31:53.402645 27242 net.cpp:395] bn5a_branch2a -> res5a_branch2a (in-place)
I0831 09:31:53.402915 27242 net.cpp:150] Setting up bn5a_branch2a
I0831 09:31:53.402930 27242 net.cpp:157] Top shape: 12 512 16 16 (1572864)
I0831 09:31:53.402936 27242 net.cpp:165] Memory required for data: 3529506848
I0831 09:31:53.402951 27242 layer_factory.hpp:77] Creating layer scale5a_branch2a
I0831 09:31:53.402971 27242 net.cpp:100] Creating Layer scale5a_branch2a
I0831 09:31:53.402979 27242 net.cpp:434] scale5a_branch2a <- res5a_branch2a
I0831 09:31:53.402989 27242 net.cpp:395] scale5a_branch2a -> res5a_branch2a (in-place)
I0831 09:31:53.403060 27242 layer_factory.hpp:77] Creating layer scale5a_branch2a
I0831 09:31:53.403225 27242 net.cpp:150] Setting up scale5a_branch2a
I0831 09:31:53.403240 27242 net.cpp:157] Top shape: 12 512 16 16 (1572864)
I0831 09:31:53.403246 27242 net.cpp:165] Memory required for data: 3535798304
I0831 09:31:53.403257 27242 layer_factory.hpp:77] Creating layer res5a_branch2a_relu
I0831 09:31:53.403273 27242 net.cpp:100] Creating Layer res5a_branch2a_relu
I0831 09:31:53.403282 27242 net.cpp:434] res5a_branch2a_relu <- res5a_branch2a
I0831 09:31:53.403291 27242 net.cpp:395] res5a_branch2a_relu -> res5a_branch2a (in-place)
I0831 09:31:53.403302 27242 net.cpp:150] Setting up res5a_branch2a_relu
I0831 09:31:53.403311 27242 net.cpp:157] Top shape: 12 512 16 16 (1572864)
I0831 09:31:53.403317 27242 net.cpp:165] Memory required for data: 3542089760
I0831 09:31:53.403322 27242 layer_factory.hpp:77] Creating layer res5a_branch2b
I0831 09:31:53.403340 27242 net.cpp:100] Creating Layer res5a_branch2b
I0831 09:31:53.403348 27242 net.cpp:434] res5a_branch2b <- res5a_branch2a
I0831 09:31:53.403359 27242 net.cpp:408] res5a_branch2b -> res5a_branch2b
I0831 09:31:53.590147 27242 net.cpp:150] Setting up res5a_branch2b
I0831 09:31:53.590198 27242 net.cpp:157] Top shape: 12 512 16 16 (1572864)
I0831 09:31:53.590204 27242 net.cpp:165] Memory required for data: 3548381216
I0831 09:31:53.590219 27242 layer_factory.hpp:77] Creating layer bn5a_branch2b
I0831 09:31:53.590236 27242 net.cpp:100] Creating Layer bn5a_branch2b
I0831 09:31:53.590246 27242 net.cpp:434] bn5a_branch2b <- res5a_branch2b
I0831 09:31:53.590258 27242 net.cpp:395] bn5a_branch2b -> res5a_branch2b (in-place)
I0831 09:31:53.590533 27242 net.cpp:150] Setting up bn5a_branch2b
I0831 09:31:53.590553 27242 net.cpp:157] Top shape: 12 512 16 16 (1572864)
I0831 09:31:53.590559 27242 net.cpp:165] Memory required for data: 3554672672
I0831 09:31:53.590574 27242 layer_factory.hpp:77] Creating layer scale5a_branch2b
I0831 09:31:53.590590 27242 net.cpp:100] Creating Layer scale5a_branch2b
I0831 09:31:53.590597 27242 net.cpp:434] scale5a_branch2b <- res5a_branch2b
I0831 09:31:53.590608 27242 net.cpp:395] scale5a_branch2b -> res5a_branch2b (in-place)
I0831 09:31:53.590678 27242 layer_factory.hpp:77] Creating layer scale5a_branch2b
I0831 09:31:53.590839 27242 net.cpp:150] Setting up scale5a_branch2b
I0831 09:31:53.590855 27242 net.cpp:157] Top shape: 12 512 16 16 (1572864)
I0831 09:31:53.590860 27242 net.cpp:165] Memory required for data: 3560964128
I0831 09:31:53.590873 27242 layer_factory.hpp:77] Creating layer res5a
I0831 09:31:53.590883 27242 net.cpp:100] Creating Layer res5a
I0831 09:31:53.590893 27242 net.cpp:434] res5a <- res5a_branch1
I0831 09:31:53.590927 27242 net.cpp:434] res5a <- res5a_branch2b
I0831 09:31:53.590941 27242 net.cpp:408] res5a -> res5a
I0831 09:31:53.590976 27242 net.cpp:150] Setting up res5a
I0831 09:31:53.590991 27242 net.cpp:157] Top shape: 12 512 16 16 (1572864)
I0831 09:31:53.590996 27242 net.cpp:165] Memory required for data: 3567255584
I0831 09:31:53.591001 27242 layer_factory.hpp:77] Creating layer res5a_relu
I0831 09:31:53.591015 27242 net.cpp:100] Creating Layer res5a_relu
I0831 09:31:53.591024 27242 net.cpp:434] res5a_relu <- res5a
I0831 09:31:53.591033 27242 net.cpp:395] res5a_relu -> res5a (in-place)
I0831 09:31:53.591044 27242 net.cpp:150] Setting up res5a_relu
I0831 09:31:53.591055 27242 net.cpp:157] Top shape: 12 512 16 16 (1572864)
I0831 09:31:53.591061 27242 net.cpp:165] Memory required for data: 3573547040
I0831 09:31:53.591066 27242 layer_factory.hpp:77] Creating layer res5a_res5a_relu_0_split
I0831 09:31:53.591076 27242 net.cpp:100] Creating Layer res5a_res5a_relu_0_split
I0831 09:31:53.591082 27242 net.cpp:434] res5a_res5a_relu_0_split <- res5a
I0831 09:31:53.591092 27242 net.cpp:408] res5a_res5a_relu_0_split -> res5a_res5a_relu_0_split_0
I0831 09:31:53.591104 27242 net.cpp:408] res5a_res5a_relu_0_split -> res5a_res5a_relu_0_split_1
I0831 09:31:53.591159 27242 net.cpp:150] Setting up res5a_res5a_relu_0_split
I0831 09:31:53.591173 27242 net.cpp:157] Top shape: 12 512 16 16 (1572864)
I0831 09:31:53.591181 27242 net.cpp:157] Top shape: 12 512 16 16 (1572864)
I0831 09:31:53.591187 27242 net.cpp:165] Memory required for data: 3586129952
I0831 09:31:53.591192 27242 layer_factory.hpp:77] Creating layer res5b_branch2a
I0831 09:31:53.591210 27242 net.cpp:100] Creating Layer res5b_branch2a
I0831 09:31:53.591219 27242 net.cpp:434] res5b_branch2a <- res5a_res5a_relu_0_split_0
I0831 09:31:53.591231 27242 net.cpp:408] res5b_branch2a -> res5b_branch2a
I0831 09:31:53.725579 27242 net.cpp:150] Setting up res5b_branch2a
I0831 09:31:53.725620 27242 net.cpp:157] Top shape: 12 512 16 16 (1572864)
I0831 09:31:53.725626 27242 net.cpp:165] Memory required for data: 3592421408
I0831 09:31:53.725641 27242 layer_factory.hpp:77] Creating layer bn5b_branch2a
I0831 09:31:53.725661 27242 net.cpp:100] Creating Layer bn5b_branch2a
I0831 09:31:53.725673 27242 net.cpp:434] bn5b_branch2a <- res5b_branch2a
I0831 09:31:53.725685 27242 net.cpp:395] bn5b_branch2a -> res5b_branch2a (in-place)
I0831 09:31:53.725999 27242 net.cpp:150] Setting up bn5b_branch2a
I0831 09:31:53.726017 27242 net.cpp:157] Top shape: 12 512 16 16 (1572864)
I0831 09:31:53.726023 27242 net.cpp:165] Memory required for data: 3598712864
I0831 09:31:53.726037 27242 layer_factory.hpp:77] Creating layer scale5b_branch2a
I0831 09:31:53.726056 27242 net.cpp:100] Creating Layer scale5b_branch2a
I0831 09:31:53.726065 27242 net.cpp:434] scale5b_branch2a <- res5b_branch2a
I0831 09:31:53.726076 27242 net.cpp:395] scale5b_branch2a -> res5b_branch2a (in-place)
I0831 09:31:53.726146 27242 layer_factory.hpp:77] Creating layer scale5b_branch2a
I0831 09:31:53.726312 27242 net.cpp:150] Setting up scale5b_branch2a
I0831 09:31:53.726328 27242 net.cpp:157] Top shape: 12 512 16 16 (1572864)
I0831 09:31:53.726335 27242 net.cpp:165] Memory required for data: 3605004320
I0831 09:31:53.726346 27242 layer_factory.hpp:77] Creating layer res5b_branch2a_relu
I0831 09:31:53.726361 27242 net.cpp:100] Creating Layer res5b_branch2a_relu
I0831 09:31:53.726369 27242 net.cpp:434] res5b_branch2a_relu <- res5b_branch2a
I0831 09:31:53.726378 27242 net.cpp:395] res5b_branch2a_relu -> res5b_branch2a (in-place)
I0831 09:31:53.726389 27242 net.cpp:150] Setting up res5b_branch2a_relu
I0831 09:31:53.726399 27242 net.cpp:157] Top shape: 12 512 16 16 (1572864)
I0831 09:31:53.726404 27242 net.cpp:165] Memory required for data: 3611295776
I0831 09:31:53.726410 27242 layer_factory.hpp:77] Creating layer res5b_branch2b
I0831 09:31:53.726428 27242 net.cpp:100] Creating Layer res5b_branch2b
I0831 09:31:53.726436 27242 net.cpp:434] res5b_branch2b <- res5b_branch2a
I0831 09:31:53.726449 27242 net.cpp:408] res5b_branch2b -> res5b_branch2b
I0831 09:31:53.911103 27242 net.cpp:150] Setting up res5b_branch2b
I0831 09:31:53.911151 27242 net.cpp:157] Top shape: 12 512 16 16 (1572864)
I0831 09:31:53.911159 27242 net.cpp:165] Memory required for data: 3617587232
I0831 09:31:53.911173 27242 layer_factory.hpp:77] Creating layer bn5b_branch2b
I0831 09:31:53.911190 27242 net.cpp:100] Creating Layer bn5b_branch2b
I0831 09:31:53.911198 27242 net.cpp:434] bn5b_branch2b <- res5b_branch2b
I0831 09:31:53.911211 27242 net.cpp:395] bn5b_branch2b -> res5b_branch2b (in-place)
I0831 09:31:53.911480 27242 net.cpp:150] Setting up bn5b_branch2b
I0831 09:31:53.911496 27242 net.cpp:157] Top shape: 12 512 16 16 (1572864)
I0831 09:31:53.911502 27242 net.cpp:165] Memory required for data: 3623878688
I0831 09:31:53.911516 27242 layer_factory.hpp:77] Creating layer scale5b_branch2b
I0831 09:31:53.911532 27242 net.cpp:100] Creating Layer scale5b_branch2b
I0831 09:31:53.911541 27242 net.cpp:434] scale5b_branch2b <- res5b_branch2b
I0831 09:31:53.911551 27242 net.cpp:395] scale5b_branch2b -> res5b_branch2b (in-place)
I0831 09:31:53.911623 27242 layer_factory.hpp:77] Creating layer scale5b_branch2b
I0831 09:31:53.911788 27242 net.cpp:150] Setting up scale5b_branch2b
I0831 09:31:53.911804 27242 net.cpp:157] Top shape: 12 512 16 16 (1572864)
I0831 09:31:53.911809 27242 net.cpp:165] Memory required for data: 3630170144
I0831 09:31:53.911821 27242 layer_factory.hpp:77] Creating layer res5b
I0831 09:31:53.911836 27242 net.cpp:100] Creating Layer res5b
I0831 09:31:53.911845 27242 net.cpp:434] res5b <- res5a_res5a_relu_0_split_1
I0831 09:31:53.911854 27242 net.cpp:434] res5b <- res5b_branch2b
I0831 09:31:53.911864 27242 net.cpp:408] res5b -> res5b
I0831 09:31:53.911898 27242 net.cpp:150] Setting up res5b
I0831 09:31:53.911912 27242 net.cpp:157] Top shape: 12 512 16 16 (1572864)
I0831 09:31:53.911918 27242 net.cpp:165] Memory required for data: 3636461600
I0831 09:31:53.911924 27242 layer_factory.hpp:77] Creating layer res5b_relu
I0831 09:31:53.911937 27242 net.cpp:100] Creating Layer res5b_relu
I0831 09:31:53.911947 27242 net.cpp:434] res5b_relu <- res5b
I0831 09:31:53.911955 27242 net.cpp:395] res5b_relu -> res5b (in-place)
I0831 09:31:53.911967 27242 net.cpp:150] Setting up res5b_relu
I0831 09:31:53.911975 27242 net.cpp:157] Top shape: 12 512 16 16 (1572864)
I0831 09:31:53.911981 27242 net.cpp:165] Memory required for data: 3642753056
I0831 09:31:53.911988 27242 layer_factory.hpp:77] Creating layer res5b_res5b_relu_0_split
I0831 09:31:53.911998 27242 net.cpp:100] Creating Layer res5b_res5b_relu_0_split
I0831 09:31:53.912003 27242 net.cpp:434] res5b_res5b_relu_0_split <- res5b
I0831 09:31:53.912014 27242 net.cpp:408] res5b_res5b_relu_0_split -> res5b_res5b_relu_0_split_0
I0831 09:31:53.912029 27242 net.cpp:408] res5b_res5b_relu_0_split -> res5b_res5b_relu_0_split_1
I0831 09:31:53.912044 27242 net.cpp:408] res5b_res5b_relu_0_split -> res5b_res5b_relu_0_split_2
I0831 09:31:53.912057 27242 net.cpp:408] res5b_res5b_relu_0_split -> res5b_res5b_relu_0_split_3
I0831 09:31:53.912142 27242 net.cpp:150] Setting up res5b_res5b_relu_0_split
I0831 09:31:53.912155 27242 net.cpp:157] Top shape: 12 512 16 16 (1572864)
I0831 09:31:53.912163 27242 net.cpp:157] Top shape: 12 512 16 16 (1572864)
I0831 09:31:53.912170 27242 net.cpp:157] Top shape: 12 512 16 16 (1572864)
I0831 09:31:53.912180 27242 net.cpp:157] Top shape: 12 512 16 16 (1572864)
I0831 09:31:53.912186 27242 net.cpp:165] Memory required for data: 3667918880
I0831 09:31:53.912192 27242 layer_factory.hpp:77] Creating layer conv7_1
I0831 09:31:53.912212 27242 net.cpp:100] Creating Layer conv7_1
I0831 09:31:53.912221 27242 net.cpp:434] conv7_1 <- res5b_res5b_relu_0_split_0
I0831 09:31:53.912232 27242 net.cpp:408] conv7_1 -> conv7_1
I0831 09:31:53.913542 27242 net.cpp:150] Setting up conv7_1
I0831 09:31:53.913568 27242 net.cpp:157] Top shape: 12 128 16 16 (393216)
I0831 09:31:53.913578 27242 net.cpp:165] Memory required for data: 3669491744
I0831 09:31:53.913594 27242 layer_factory.hpp:77] Creating layer conv7_1_bn
I0831 09:31:53.913621 27242 net.cpp:100] Creating Layer conv7_1_bn
I0831 09:31:53.913666 27242 net.cpp:434] conv7_1_bn <- conv7_1
I0831 09:31:53.913686 27242 net.cpp:395] conv7_1_bn -> conv7_1 (in-place)
I0831 09:31:53.913941 27242 net.cpp:150] Setting up conv7_1_bn
I0831 09:31:53.913957 27242 net.cpp:157] Top shape: 12 128 16 16 (393216)
I0831 09:31:53.913964 27242 net.cpp:165] Memory required for data: 3671064608
I0831 09:31:53.914000 27242 layer_factory.hpp:77] Creating layer conv7_1_scale
I0831 09:31:53.914016 27242 net.cpp:100] Creating Layer conv7_1_scale
I0831 09:31:53.914023 27242 net.cpp:434] conv7_1_scale <- conv7_1
I0831 09:31:53.914041 27242 net.cpp:395] conv7_1_scale -> conv7_1 (in-place)
I0831 09:31:53.914109 27242 layer_factory.hpp:77] Creating layer conv7_1_scale
I0831 09:31:53.914258 27242 net.cpp:150] Setting up conv7_1_scale
I0831 09:31:53.914273 27242 net.cpp:157] Top shape: 12 128 16 16 (393216)
I0831 09:31:53.914278 27242 net.cpp:165] Memory required for data: 3672637472
I0831 09:31:53.914289 27242 layer_factory.hpp:77] Creating layer conv7_1_relu
I0831 09:31:53.914300 27242 net.cpp:100] Creating Layer conv7_1_relu
I0831 09:31:53.914309 27242 net.cpp:434] conv7_1_relu <- conv7_1
I0831 09:31:53.914320 27242 net.cpp:395] conv7_1_relu -> conv7_1 (in-place)
I0831 09:31:53.914335 27242 net.cpp:150] Setting up conv7_1_relu
I0831 09:31:53.914345 27242 net.cpp:157] Top shape: 12 128 16 16 (393216)
I0831 09:31:53.914350 27242 net.cpp:165] Memory required for data: 3674210336
I0831 09:31:53.914355 27242 layer_factory.hpp:77] Creating layer conv7_2
I0831 09:31:53.914368 27242 net.cpp:100] Creating Layer conv7_2
I0831 09:31:53.914376 27242 net.cpp:434] conv7_2 <- conv7_1
I0831 09:31:53.914391 27242 net.cpp:408] conv7_2 -> conv7_2
I0831 09:31:53.920048 27242 net.cpp:150] Setting up conv7_2
I0831 09:31:53.920070 27242 net.cpp:157] Top shape: 12 256 8 8 (196608)
I0831 09:31:53.920076 27242 net.cpp:165] Memory required for data: 3674996768
I0831 09:31:53.920086 27242 layer_factory.hpp:77] Creating layer conv7_2_bn
I0831 09:31:53.920099 27242 net.cpp:100] Creating Layer conv7_2_bn
I0831 09:31:53.920107 27242 net.cpp:434] conv7_2_bn <- conv7_2
I0831 09:31:53.920120 27242 net.cpp:395] conv7_2_bn -> conv7_2 (in-place)
I0831 09:31:53.920380 27242 net.cpp:150] Setting up conv7_2_bn
I0831 09:31:53.920397 27242 net.cpp:157] Top shape: 12 256 8 8 (196608)
I0831 09:31:53.920403 27242 net.cpp:165] Memory required for data: 3675783200
I0831 09:31:53.920418 27242 layer_factory.hpp:77] Creating layer conv7_2_scale
I0831 09:31:53.920431 27242 net.cpp:100] Creating Layer conv7_2_scale
I0831 09:31:53.920440 27242 net.cpp:434] conv7_2_scale <- conv7_2
I0831 09:31:53.920454 27242 net.cpp:395] conv7_2_scale -> conv7_2 (in-place)
I0831 09:31:53.920519 27242 layer_factory.hpp:77] Creating layer conv7_2_scale
I0831 09:31:53.920689 27242 net.cpp:150] Setting up conv7_2_scale
I0831 09:31:53.920706 27242 net.cpp:157] Top shape: 12 256 8 8 (196608)
I0831 09:31:53.920711 27242 net.cpp:165] Memory required for data: 3676569632
I0831 09:31:53.920722 27242 layer_factory.hpp:77] Creating layer conv7_2_relu
I0831 09:31:53.920732 27242 net.cpp:100] Creating Layer conv7_2_relu
I0831 09:31:53.920743 27242 net.cpp:434] conv7_2_relu <- conv7_2
I0831 09:31:53.920756 27242 net.cpp:395] conv7_2_relu -> conv7_2 (in-place)
I0831 09:31:53.920769 27242 net.cpp:150] Setting up conv7_2_relu
I0831 09:31:53.920780 27242 net.cpp:157] Top shape: 12 256 8 8 (196608)
I0831 09:31:53.920788 27242 net.cpp:165] Memory required for data: 3677356064
I0831 09:31:53.920794 27242 layer_factory.hpp:77] Creating layer conv7_2_conv7_2_relu_0_split
I0831 09:31:53.920804 27242 net.cpp:100] Creating Layer conv7_2_conv7_2_relu_0_split
I0831 09:31:53.920809 27242 net.cpp:434] conv7_2_conv7_2_relu_0_split <- conv7_2
I0831 09:31:53.920821 27242 net.cpp:408] conv7_2_conv7_2_relu_0_split -> conv7_2_conv7_2_relu_0_split_0
I0831 09:31:53.920855 27242 net.cpp:408] conv7_2_conv7_2_relu_0_split -> conv7_2_conv7_2_relu_0_split_1
I0831 09:31:53.920871 27242 net.cpp:408] conv7_2_conv7_2_relu_0_split -> conv7_2_conv7_2_relu_0_split_2
I0831 09:31:53.920903 27242 net.cpp:408] conv7_2_conv7_2_relu_0_split -> conv7_2_conv7_2_relu_0_split_3
I0831 09:31:53.920991 27242 net.cpp:150] Setting up conv7_2_conv7_2_relu_0_split
I0831 09:31:53.921007 27242 net.cpp:157] Top shape: 12 256 8 8 (196608)
I0831 09:31:53.921015 27242 net.cpp:157] Top shape: 12 256 8 8 (196608)
I0831 09:31:53.921022 27242 net.cpp:157] Top shape: 12 256 8 8 (196608)
I0831 09:31:53.921031 27242 net.cpp:157] Top shape: 12 256 8 8 (196608)
I0831 09:31:53.921038 27242 net.cpp:165] Memory required for data: 3680501792
I0831 09:31:53.921046 27242 layer_factory.hpp:77] Creating layer conv8_1
I0831 09:31:53.921062 27242 net.cpp:100] Creating Layer conv8_1
I0831 09:31:53.921072 27242 net.cpp:434] conv8_1 <- conv7_2_conv7_2_relu_0_split_0
I0831 09:31:53.921084 27242 net.cpp:408] conv8_1 -> conv8_1
I0831 09:31:53.921861 27242 net.cpp:150] Setting up conv8_1
I0831 09:31:53.921880 27242 net.cpp:157] Top shape: 12 128 8 8 (98304)
I0831 09:31:53.921885 27242 net.cpp:165] Memory required for data: 3680895008
I0831 09:31:53.921895 27242 layer_factory.hpp:77] Creating layer conv8_1_bn
I0831 09:31:53.921905 27242 net.cpp:100] Creating Layer conv8_1_bn
I0831 09:31:53.921916 27242 net.cpp:434] conv8_1_bn <- conv8_1
I0831 09:31:53.921924 27242 net.cpp:395] conv8_1_bn -> conv8_1 (in-place)
I0831 09:31:53.922169 27242 net.cpp:150] Setting up conv8_1_bn
I0831 09:31:53.922185 27242 net.cpp:157] Top shape: 12 128 8 8 (98304)
I0831 09:31:53.922191 27242 net.cpp:165] Memory required for data: 3681288224
I0831 09:31:53.922209 27242 layer_factory.hpp:77] Creating layer conv8_1_scale
I0831 09:31:53.922224 27242 net.cpp:100] Creating Layer conv8_1_scale
I0831 09:31:53.922230 27242 net.cpp:434] conv8_1_scale <- conv8_1
I0831 09:31:53.922242 27242 net.cpp:395] conv8_1_scale -> conv8_1 (in-place)
I0831 09:31:53.922309 27242 layer_factory.hpp:77] Creating layer conv8_1_scale
I0831 09:31:53.922464 27242 net.cpp:150] Setting up conv8_1_scale
I0831 09:31:53.922485 27242 net.cpp:157] Top shape: 12 128 8 8 (98304)
I0831 09:31:53.922493 27242 net.cpp:165] Memory required for data: 3681681440
I0831 09:31:53.922504 27242 layer_factory.hpp:77] Creating layer conv8_1_relu
I0831 09:31:53.922516 27242 net.cpp:100] Creating Layer conv8_1_relu
I0831 09:31:53.922526 27242 net.cpp:434] conv8_1_relu <- conv8_1
I0831 09:31:53.922536 27242 net.cpp:395] conv8_1_relu -> conv8_1 (in-place)
I0831 09:31:53.922546 27242 net.cpp:150] Setting up conv8_1_relu
I0831 09:31:53.922559 27242 net.cpp:157] Top shape: 12 128 8 8 (98304)
I0831 09:31:53.922565 27242 net.cpp:165] Memory required for data: 3682074656
I0831 09:31:53.922570 27242 layer_factory.hpp:77] Creating layer conv8_2
I0831 09:31:53.922588 27242 net.cpp:100] Creating Layer conv8_2
I0831 09:31:53.922597 27242 net.cpp:434] conv8_2 <- conv8_1
I0831 09:31:53.922608 27242 net.cpp:408] conv8_2 -> conv8_2
I0831 09:31:53.928084 27242 net.cpp:150] Setting up conv8_2
I0831 09:31:53.928107 27242 net.cpp:157] Top shape: 12 256 4 4 (49152)
I0831 09:31:53.928113 27242 net.cpp:165] Memory required for data: 3682271264
I0831 09:31:53.928123 27242 layer_factory.hpp:77] Creating layer conv8_2_bn
I0831 09:31:53.928138 27242 net.cpp:100] Creating Layer conv8_2_bn
I0831 09:31:53.928150 27242 net.cpp:434] conv8_2_bn <- conv8_2
I0831 09:31:53.928162 27242 net.cpp:395] conv8_2_bn -> conv8_2 (in-place)
I0831 09:31:53.928423 27242 net.cpp:150] Setting up conv8_2_bn
I0831 09:31:53.928439 27242 net.cpp:157] Top shape: 12 256 4 4 (49152)
I0831 09:31:53.928445 27242 net.cpp:165] Memory required for data: 3682467872
I0831 09:31:53.928463 27242 layer_factory.hpp:77] Creating layer conv8_2_scale
I0831 09:31:53.928481 27242 net.cpp:100] Creating Layer conv8_2_scale
I0831 09:31:53.928491 27242 net.cpp:434] conv8_2_scale <- conv8_2
I0831 09:31:53.928503 27242 net.cpp:395] conv8_2_scale -> conv8_2 (in-place)
I0831 09:31:53.928571 27242 layer_factory.hpp:77] Creating layer conv8_2_scale
I0831 09:31:53.928741 27242 net.cpp:150] Setting up conv8_2_scale
I0831 09:31:53.928758 27242 net.cpp:157] Top shape: 12 256 4 4 (49152)
I0831 09:31:53.928784 27242 net.cpp:165] Memory required for data: 3682664480
I0831 09:31:53.928798 27242 layer_factory.hpp:77] Creating layer conv8_2_relu
I0831 09:31:53.928809 27242 net.cpp:100] Creating Layer conv8_2_relu
I0831 09:31:53.928817 27242 net.cpp:434] conv8_2_relu <- conv8_2
I0831 09:31:53.928833 27242 net.cpp:395] conv8_2_relu -> conv8_2 (in-place)
I0831 09:31:53.928846 27242 net.cpp:150] Setting up conv8_2_relu
I0831 09:31:53.928856 27242 net.cpp:157] Top shape: 12 256 4 4 (49152)
I0831 09:31:53.928866 27242 net.cpp:165] Memory required for data: 3682861088
I0831 09:31:53.928872 27242 layer_factory.hpp:77] Creating layer conv8_2_conv8_2_relu_0_split
I0831 09:31:53.928882 27242 net.cpp:100] Creating Layer conv8_2_conv8_2_relu_0_split
I0831 09:31:53.928889 27242 net.cpp:434] conv8_2_conv8_2_relu_0_split <- conv8_2
I0831 09:31:53.928910 27242 net.cpp:408] conv8_2_conv8_2_relu_0_split -> conv8_2_conv8_2_relu_0_split_0
I0831 09:31:53.928926 27242 net.cpp:408] conv8_2_conv8_2_relu_0_split -> conv8_2_conv8_2_relu_0_split_1
I0831 09:31:53.928944 27242 net.cpp:408] conv8_2_conv8_2_relu_0_split -> conv8_2_conv8_2_relu_0_split_2
I0831 09:31:53.928961 27242 net.cpp:408] conv8_2_conv8_2_relu_0_split -> conv8_2_conv8_2_relu_0_split_3
I0831 09:31:53.929050 27242 net.cpp:150] Setting up conv8_2_conv8_2_relu_0_split
I0831 09:31:53.929065 27242 net.cpp:157] Top shape: 12 256 4 4 (49152)
I0831 09:31:53.929074 27242 net.cpp:157] Top shape: 12 256 4 4 (49152)
I0831 09:31:53.929080 27242 net.cpp:157] Top shape: 12 256 4 4 (49152)
I0831 09:31:53.929088 27242 net.cpp:157] Top shape: 12 256 4 4 (49152)
I0831 09:31:53.929096 27242 net.cpp:165] Memory required for data: 3683647520
I0831 09:31:53.929102 27242 layer_factory.hpp:77] Creating layer conv9_1
I0831 09:31:53.929116 27242 net.cpp:100] Creating Layer conv9_1
I0831 09:31:53.929126 27242 net.cpp:434] conv9_1 <- conv8_2_conv8_2_relu_0_split_0
I0831 09:31:53.929136 27242 net.cpp:408] conv9_1 -> conv9_1
I0831 09:31:53.930584 27242 net.cpp:150] Setting up conv9_1
I0831 09:31:53.930606 27242 net.cpp:157] Top shape: 12 128 4 4 (24576)
I0831 09:31:53.930613 27242 net.cpp:165] Memory required for data: 3683745824
I0831 09:31:53.930622 27242 layer_factory.hpp:77] Creating layer conv9_1_bn
I0831 09:31:53.930634 27242 net.cpp:100] Creating Layer conv9_1_bn
I0831 09:31:53.930642 27242 net.cpp:434] conv9_1_bn <- conv9_1
I0831 09:31:53.930655 27242 net.cpp:395] conv9_1_bn -> conv9_1 (in-place)
I0831 09:31:53.930912 27242 net.cpp:150] Setting up conv9_1_bn
I0831 09:31:53.930927 27242 net.cpp:157] Top shape: 12 128 4 4 (24576)
I0831 09:31:53.930934 27242 net.cpp:165] Memory required for data: 3683844128
I0831 09:31:53.930948 27242 layer_factory.hpp:77] Creating layer conv9_1_scale
I0831 09:31:53.930961 27242 net.cpp:100] Creating Layer conv9_1_scale
I0831 09:31:53.930969 27242 net.cpp:434] conv9_1_scale <- conv9_1
I0831 09:31:53.930982 27242 net.cpp:395] conv9_1_scale -> conv9_1 (in-place)
I0831 09:31:53.931043 27242 layer_factory.hpp:77] Creating layer conv9_1_scale
I0831 09:31:53.931205 27242 net.cpp:150] Setting up conv9_1_scale
I0831 09:31:53.931221 27242 net.cpp:157] Top shape: 12 128 4 4 (24576)
I0831 09:31:53.931227 27242 net.cpp:165] Memory required for data: 3683942432
I0831 09:31:53.931238 27242 layer_factory.hpp:77] Creating layer conv9_1_relu
I0831 09:31:53.931249 27242 net.cpp:100] Creating Layer conv9_1_relu
I0831 09:31:53.931257 27242 net.cpp:434] conv9_1_relu <- conv9_1
I0831 09:31:53.931270 27242 net.cpp:395] conv9_1_relu -> conv9_1 (in-place)
I0831 09:31:53.931282 27242 net.cpp:150] Setting up conv9_1_relu
I0831 09:31:53.931293 27242 net.cpp:157] Top shape: 12 128 4 4 (24576)
I0831 09:31:53.931298 27242 net.cpp:165] Memory required for data: 3684040736
I0831 09:31:53.931303 27242 layer_factory.hpp:77] Creating layer conv9_2
I0831 09:31:53.931318 27242 net.cpp:100] Creating Layer conv9_2
I0831 09:31:53.931326 27242 net.cpp:434] conv9_2 <- conv9_1
I0831 09:31:53.931337 27242 net.cpp:408] conv9_2 -> conv9_2
I0831 09:31:53.936834 27242 net.cpp:150] Setting up conv9_2
I0831 09:31:53.936878 27242 net.cpp:157] Top shape: 12 256 2 2 (12288)
I0831 09:31:53.936895 27242 net.cpp:165] Memory required for data: 3684089888
I0831 09:31:53.936918 27242 layer_factory.hpp:77] Creating layer conv9_2_bn
I0831 09:31:53.936939 27242 net.cpp:100] Creating Layer conv9_2_bn
I0831 09:31:53.936959 27242 net.cpp:434] conv9_2_bn <- conv9_2
I0831 09:31:53.936972 27242 net.cpp:395] conv9_2_bn -> conv9_2 (in-place)
I0831 09:31:53.937319 27242 net.cpp:150] Setting up conv9_2_bn
I0831 09:31:53.937337 27242 net.cpp:157] Top shape: 12 256 2 2 (12288)
I0831 09:31:53.937345 27242 net.cpp:165] Memory required for data: 3684139040
I0831 09:31:53.937358 27242 layer_factory.hpp:77] Creating layer conv9_2_scale
I0831 09:31:53.937372 27242 net.cpp:100] Creating Layer conv9_2_scale
I0831 09:31:53.937381 27242 net.cpp:434] conv9_2_scale <- conv9_2
I0831 09:31:53.937393 27242 net.cpp:395] conv9_2_scale -> conv9_2 (in-place)
I0831 09:31:53.937461 27242 layer_factory.hpp:77] Creating layer conv9_2_scale
I0831 09:31:53.937623 27242 net.cpp:150] Setting up conv9_2_scale
I0831 09:31:53.937639 27242 net.cpp:157] Top shape: 12 256 2 2 (12288)
I0831 09:31:53.937646 27242 net.cpp:165] Memory required for data: 3684188192
I0831 09:31:53.937659 27242 layer_factory.hpp:77] Creating layer conv9_2_relu
I0831 09:31:53.937674 27242 net.cpp:100] Creating Layer conv9_2_relu
I0831 09:31:53.937682 27242 net.cpp:434] conv9_2_relu <- conv9_2
I0831 09:31:53.937691 27242 net.cpp:395] conv9_2_relu -> conv9_2 (in-place)
I0831 09:31:53.937703 27242 net.cpp:150] Setting up conv9_2_relu
I0831 09:31:53.937712 27242 net.cpp:157] Top shape: 12 256 2 2 (12288)
I0831 09:31:53.937719 27242 net.cpp:165] Memory required for data: 3684237344
I0831 09:31:53.937726 27242 layer_factory.hpp:77] Creating layer conv9_2_conv9_2_relu_0_split
I0831 09:31:53.937736 27242 net.cpp:100] Creating Layer conv9_2_conv9_2_relu_0_split
I0831 09:31:53.937744 27242 net.cpp:434] conv9_2_conv9_2_relu_0_split <- conv9_2
I0831 09:31:53.937757 27242 net.cpp:408] conv9_2_conv9_2_relu_0_split -> conv9_2_conv9_2_relu_0_split_0
I0831 09:31:53.937770 27242 net.cpp:408] conv9_2_conv9_2_relu_0_split -> conv9_2_conv9_2_relu_0_split_1
I0831 09:31:53.937785 27242 net.cpp:408] conv9_2_conv9_2_relu_0_split -> conv9_2_conv9_2_relu_0_split_2
I0831 09:31:53.937808 27242 net.cpp:408] conv9_2_conv9_2_relu_0_split -> conv9_2_conv9_2_relu_0_split_3
I0831 09:31:53.937894 27242 net.cpp:150] Setting up conv9_2_conv9_2_relu_0_split
I0831 09:31:53.937909 27242 net.cpp:157] Top shape: 12 256 2 2 (12288)
I0831 09:31:53.937918 27242 net.cpp:157] Top shape: 12 256 2 2 (12288)
I0831 09:31:53.937927 27242 net.cpp:157] Top shape: 12 256 2 2 (12288)
I0831 09:31:53.937937 27242 net.cpp:157] Top shape: 12 256 2 2 (12288)
I0831 09:31:53.937943 27242 net.cpp:165] Memory required for data: 3684433952
I0831 09:31:53.937949 27242 layer_factory.hpp:77] Creating layer pool6
I0831 09:31:53.937964 27242 net.cpp:100] Creating Layer pool6
I0831 09:31:53.937973 27242 net.cpp:434] pool6 <- conv9_2_conv9_2_relu_0_split_0
I0831 09:31:53.937984 27242 net.cpp:408] pool6 -> pool6
I0831 09:31:53.938025 27242 net.cpp:150] Setting up pool6
I0831 09:31:53.938040 27242 net.cpp:157] Top shape: 12 256 1 1 (3072)
I0831 09:31:53.938046 27242 net.cpp:165] Memory required for data: 3684446240
I0831 09:31:53.938052 27242 layer_factory.hpp:77] Creating layer pool6_pool6_0_split
I0831 09:31:53.938096 27242 net.cpp:100] Creating Layer pool6_pool6_0_split
I0831 09:31:53.938105 27242 net.cpp:434] pool6_pool6_0_split <- pool6
I0831 09:31:53.938117 27242 net.cpp:408] pool6_pool6_0_split -> pool6_pool6_0_split_0
I0831 09:31:53.938130 27242 net.cpp:408] pool6_pool6_0_split -> pool6_pool6_0_split_1
I0831 09:31:53.938144 27242 net.cpp:408] pool6_pool6_0_split -> pool6_pool6_0_split_2
I0831 09:31:53.938217 27242 net.cpp:150] Setting up pool6_pool6_0_split
I0831 09:31:53.938231 27242 net.cpp:157] Top shape: 12 256 1 1 (3072)
I0831 09:31:53.938241 27242 net.cpp:157] Top shape: 12 256 1 1 (3072)
I0831 09:31:53.938251 27242 net.cpp:157] Top shape: 12 256 1 1 (3072)
I0831 09:31:53.938271 27242 net.cpp:165] Memory required for data: 3684483104
I0831 09:31:53.938278 27242 layer_factory.hpp:77] Creating layer res4b_relu_mbox_loc
I0831 09:31:53.938293 27242 net.cpp:100] Creating Layer res4b_relu_mbox_loc
I0831 09:31:53.938303 27242 net.cpp:434] res4b_relu_mbox_loc <- res4b_res4b_relu_0_split_2
I0831 09:31:53.938320 27242 net.cpp:408] res4b_relu_mbox_loc -> res4b_relu_mbox_loc
I0831 09:31:53.939157 27242 net.cpp:150] Setting up res4b_relu_mbox_loc
I0831 09:31:53.939175 27242 net.cpp:157] Top shape: 12 16 32 32 (196608)
I0831 09:31:53.939182 27242 net.cpp:165] Memory required for data: 3685269536
I0831 09:31:53.939193 27242 layer_factory.hpp:77] Creating layer res4b_relu_mbox_loc_bn
I0831 09:31:53.939210 27242 net.cpp:100] Creating Layer res4b_relu_mbox_loc_bn
I0831 09:31:53.939221 27242 net.cpp:434] res4b_relu_mbox_loc_bn <- res4b_relu_mbox_loc
I0831 09:31:53.939231 27242 net.cpp:395] res4b_relu_mbox_loc_bn -> res4b_relu_mbox_loc (in-place)
I0831 09:31:53.939504 27242 net.cpp:150] Setting up res4b_relu_mbox_loc_bn
I0831 09:31:53.939520 27242 net.cpp:157] Top shape: 12 16 32 32 (196608)
I0831 09:31:53.939527 27242 net.cpp:165] Memory required for data: 3686055968
I0831 09:31:53.939540 27242 layer_factory.hpp:77] Creating layer res4b_relu_mbox_loc_scale
I0831 09:31:53.939553 27242 net.cpp:100] Creating Layer res4b_relu_mbox_loc_scale
I0831 09:31:53.939561 27242 net.cpp:434] res4b_relu_mbox_loc_scale <- res4b_relu_mbox_loc
I0831 09:31:53.939573 27242 net.cpp:395] res4b_relu_mbox_loc_scale -> res4b_relu_mbox_loc (in-place)
I0831 09:31:53.939640 27242 layer_factory.hpp:77] Creating layer res4b_relu_mbox_loc_scale
I0831 09:31:53.939808 27242 net.cpp:150] Setting up res4b_relu_mbox_loc_scale
I0831 09:31:53.939824 27242 net.cpp:157] Top shape: 12 16 32 32 (196608)
I0831 09:31:53.939831 27242 net.cpp:165] Memory required for data: 3686842400
I0831 09:31:53.939842 27242 layer_factory.hpp:77] Creating layer res4b_relu_mbox_loc_perm
I0831 09:31:53.939857 27242 net.cpp:100] Creating Layer res4b_relu_mbox_loc_perm
I0831 09:31:53.939864 27242 net.cpp:434] res4b_relu_mbox_loc_perm <- res4b_relu_mbox_loc
I0831 09:31:53.939882 27242 net.cpp:408] res4b_relu_mbox_loc_perm -> res4b_relu_mbox_loc_perm
I0831 09:31:53.940028 27242 net.cpp:150] Setting up res4b_relu_mbox_loc_perm
I0831 09:31:53.940047 27242 net.cpp:157] Top shape: 12 32 32 16 (196608)
I0831 09:31:53.940055 27242 net.cpp:165] Memory required for data: 3687628832
I0831 09:31:53.940062 27242 layer_factory.hpp:77] Creating layer res4b_relu_mbox_loc_flat
I0831 09:31:53.940073 27242 net.cpp:100] Creating Layer res4b_relu_mbox_loc_flat
I0831 09:31:53.940081 27242 net.cpp:434] res4b_relu_mbox_loc_flat <- res4b_relu_mbox_loc_perm
I0831 09:31:53.940093 27242 net.cpp:408] res4b_relu_mbox_loc_flat -> res4b_relu_mbox_loc_flat
I0831 09:31:53.940142 27242 net.cpp:150] Setting up res4b_relu_mbox_loc_flat
I0831 09:31:53.940157 27242 net.cpp:157] Top shape: 12 16384 (196608)
I0831 09:31:53.940163 27242 net.cpp:165] Memory required for data: 3688415264
I0831 09:31:53.940170 27242 layer_factory.hpp:77] Creating layer res4b_relu_mbox_conf
I0831 09:31:53.940192 27242 net.cpp:100] Creating Layer res4b_relu_mbox_conf
I0831 09:31:53.940201 27242 net.cpp:434] res4b_relu_mbox_conf <- res4b_res4b_relu_0_split_3
I0831 09:31:53.940214 27242 net.cpp:408] res4b_relu_mbox_conf -> res4b_relu_mbox_conf
I0831 09:31:53.940793 27242 net.cpp:150] Setting up res4b_relu_mbox_conf
I0831 09:31:53.940811 27242 net.cpp:157] Top shape: 12 8 32 32 (98304)
I0831 09:31:53.940820 27242 net.cpp:165] Memory required for data: 3688808480
I0831 09:31:53.940831 27242 layer_factory.hpp:77] Creating layer res4b_relu_mbox_conf_bn
I0831 09:31:53.940845 27242 net.cpp:100] Creating Layer res4b_relu_mbox_conf_bn
I0831 09:31:53.940852 27242 net.cpp:434] res4b_relu_mbox_conf_bn <- res4b_relu_mbox_conf
I0831 09:31:53.940866 27242 net.cpp:395] res4b_relu_mbox_conf_bn -> res4b_relu_mbox_conf (in-place)
I0831 09:31:53.941130 27242 net.cpp:150] Setting up res4b_relu_mbox_conf_bn
I0831 09:31:53.941146 27242 net.cpp:157] Top shape: 12 8 32 32 (98304)
I0831 09:31:53.941169 27242 net.cpp:165] Memory required for data: 3689201696
I0831 09:31:53.941182 27242 layer_factory.hpp:77] Creating layer res4b_relu_mbox_conf_scale
I0831 09:31:53.941200 27242 net.cpp:100] Creating Layer res4b_relu_mbox_conf_scale
I0831 09:31:53.941211 27242 net.cpp:434] res4b_relu_mbox_conf_scale <- res4b_relu_mbox_conf
I0831 09:31:53.941222 27242 net.cpp:395] res4b_relu_mbox_conf_scale -> res4b_relu_mbox_conf (in-place)
I0831 09:31:53.941289 27242 layer_factory.hpp:77] Creating layer res4b_relu_mbox_conf_scale
I0831 09:31:53.941457 27242 net.cpp:150] Setting up res4b_relu_mbox_conf_scale
I0831 09:31:53.941473 27242 net.cpp:157] Top shape: 12 8 32 32 (98304)
I0831 09:31:53.941480 27242 net.cpp:165] Memory required for data: 3689594912
I0831 09:31:53.941491 27242 layer_factory.hpp:77] Creating layer res4b_relu_mbox_conf_perm
I0831 09:31:53.941504 27242 net.cpp:100] Creating Layer res4b_relu_mbox_conf_perm
I0831 09:31:53.941511 27242 net.cpp:434] res4b_relu_mbox_conf_perm <- res4b_relu_mbox_conf
I0831 09:31:53.941525 27242 net.cpp:408] res4b_relu_mbox_conf_perm -> res4b_relu_mbox_conf_perm
I0831 09:31:53.941663 27242 net.cpp:150] Setting up res4b_relu_mbox_conf_perm
I0831 09:31:53.941679 27242 net.cpp:157] Top shape: 12 32 32 8 (98304)
I0831 09:31:53.941685 27242 net.cpp:165] Memory required for data: 3689988128
I0831 09:31:53.941691 27242 layer_factory.hpp:77] Creating layer res4b_relu_mbox_conf_flat
I0831 09:31:53.941701 27242 net.cpp:100] Creating Layer res4b_relu_mbox_conf_flat
I0831 09:31:53.941709 27242 net.cpp:434] res4b_relu_mbox_conf_flat <- res4b_relu_mbox_conf_perm
I0831 09:31:53.941722 27242 net.cpp:408] res4b_relu_mbox_conf_flat -> res4b_relu_mbox_conf_flat
I0831 09:31:53.941766 27242 net.cpp:150] Setting up res4b_relu_mbox_conf_flat
I0831 09:31:53.941778 27242 net.cpp:157] Top shape: 12 8192 (98304)
I0831 09:31:53.941785 27242 net.cpp:165] Memory required for data: 3690381344
I0831 09:31:53.941792 27242 layer_factory.hpp:77] Creating layer res4b_relu_mbox_priorbox
I0831 09:31:53.941803 27242 net.cpp:100] Creating Layer res4b_relu_mbox_priorbox
I0831 09:31:53.941812 27242 net.cpp:434] res4b_relu_mbox_priorbox <- res4b_res4b_relu_0_split_4
I0831 09:31:53.941821 27242 net.cpp:434] res4b_relu_mbox_priorbox <- data_data_0_split_1
I0831 09:31:53.941836 27242 net.cpp:408] res4b_relu_mbox_priorbox -> res4b_relu_mbox_priorbox
I0831 09:31:53.941889 27242 net.cpp:150] Setting up res4b_relu_mbox_priorbox
I0831 09:31:53.941902 27242 net.cpp:157] Top shape: 1 2 16384 (32768)
I0831 09:31:53.941910 27242 net.cpp:165] Memory required for data: 3690512416
I0831 09:31:53.941915 27242 layer_factory.hpp:77] Creating layer res5b_relu_mbox_loc
I0831 09:31:53.941936 27242 net.cpp:100] Creating Layer res5b_relu_mbox_loc
I0831 09:31:53.941946 27242 net.cpp:434] res5b_relu_mbox_loc <- res5b_res5b_relu_0_split_1
I0831 09:31:53.941962 27242 net.cpp:408] res5b_relu_mbox_loc -> res5b_relu_mbox_loc
I0831 09:31:53.945655 27242 net.cpp:150] Setting up res5b_relu_mbox_loc
I0831 09:31:53.945686 27242 net.cpp:157] Top shape: 12 24 16 16 (73728)
I0831 09:31:53.945695 27242 net.cpp:165] Memory required for data: 3690807328
I0831 09:31:53.945706 27242 layer_factory.hpp:77] Creating layer res5b_relu_mbox_loc_bn
I0831 09:31:53.945721 27242 net.cpp:100] Creating Layer res5b_relu_mbox_loc_bn
I0831 09:31:53.945730 27242 net.cpp:434] res5b_relu_mbox_loc_bn <- res5b_relu_mbox_loc
I0831 09:31:53.945742 27242 net.cpp:395] res5b_relu_mbox_loc_bn -> res5b_relu_mbox_loc (in-place)
I0831 09:31:53.946023 27242 net.cpp:150] Setting up res5b_relu_mbox_loc_bn
I0831 09:31:53.946040 27242 net.cpp:157] Top shape: 12 24 16 16 (73728)
I0831 09:31:53.946048 27242 net.cpp:165] Memory required for data: 3691102240
I0831 09:31:53.946061 27242 layer_factory.hpp:77] Creating layer res5b_relu_mbox_loc_scale
I0831 09:31:53.946076 27242 net.cpp:100] Creating Layer res5b_relu_mbox_loc_scale
I0831 09:31:53.946084 27242 net.cpp:434] res5b_relu_mbox_loc_scale <- res5b_relu_mbox_loc
I0831 09:31:53.946099 27242 net.cpp:395] res5b_relu_mbox_loc_scale -> res5b_relu_mbox_loc (in-place)
I0831 09:31:53.946192 27242 layer_factory.hpp:77] Creating layer res5b_relu_mbox_loc_scale
I0831 09:31:53.946369 27242 net.cpp:150] Setting up res5b_relu_mbox_loc_scale
I0831 09:31:53.946385 27242 net.cpp:157] Top shape: 12 24 16 16 (73728)
I0831 09:31:53.946393 27242 net.cpp:165] Memory required for data: 3691397152
I0831 09:31:53.946404 27242 layer_factory.hpp:77] Creating layer res5b_relu_mbox_loc_perm
I0831 09:31:53.946420 27242 net.cpp:100] Creating Layer res5b_relu_mbox_loc_perm
I0831 09:31:53.946429 27242 net.cpp:434] res5b_relu_mbox_loc_perm <- res5b_relu_mbox_loc
I0831 09:31:53.946442 27242 net.cpp:408] res5b_relu_mbox_loc_perm -> res5b_relu_mbox_loc_perm
I0831 09:31:53.946575 27242 net.cpp:150] Setting up res5b_relu_mbox_loc_perm
I0831 09:31:53.946590 27242 net.cpp:157] Top shape: 12 16 16 24 (73728)
I0831 09:31:53.946599 27242 net.cpp:165] Memory required for data: 3691692064
I0831 09:31:53.946607 27242 layer_factory.hpp:77] Creating layer res5b_relu_mbox_loc_flat
I0831 09:31:53.946617 27242 net.cpp:100] Creating Layer res5b_relu_mbox_loc_flat
I0831 09:31:53.946626 27242 net.cpp:434] res5b_relu_mbox_loc_flat <- res5b_relu_mbox_loc_perm
I0831 09:31:53.946636 27242 net.cpp:408] res5b_relu_mbox_loc_flat -> res5b_relu_mbox_loc_flat
I0831 09:31:53.946681 27242 net.cpp:150] Setting up res5b_relu_mbox_loc_flat
I0831 09:31:53.946694 27242 net.cpp:157] Top shape: 12 6144 (73728)
I0831 09:31:53.946700 27242 net.cpp:165] Memory required for data: 3691986976
I0831 09:31:53.946707 27242 layer_factory.hpp:77] Creating layer res5b_relu_mbox_conf
I0831 09:31:53.946725 27242 net.cpp:100] Creating Layer res5b_relu_mbox_conf
I0831 09:31:53.946735 27242 net.cpp:434] res5b_relu_mbox_conf <- res5b_res5b_relu_0_split_2
I0831 09:31:53.946750 27242 net.cpp:408] res5b_relu_mbox_conf -> res5b_relu_mbox_conf
I0831 09:31:53.947873 27242 net.cpp:150] Setting up res5b_relu_mbox_conf
I0831 09:31:53.947891 27242 net.cpp:157] Top shape: 12 12 16 16 (36864)
I0831 09:31:53.947901 27242 net.cpp:165] Memory required for data: 3692134432
I0831 09:31:53.947912 27242 layer_factory.hpp:77] Creating layer res5b_relu_mbox_conf_bn
I0831 09:31:53.947927 27242 net.cpp:100] Creating Layer res5b_relu_mbox_conf_bn
I0831 09:31:53.947937 27242 net.cpp:434] res5b_relu_mbox_conf_bn <- res5b_relu_mbox_conf
I0831 09:31:53.947948 27242 net.cpp:395] res5b_relu_mbox_conf_bn -> res5b_relu_mbox_conf (in-place)
I0831 09:31:53.948217 27242 net.cpp:150] Setting up res5b_relu_mbox_conf_bn
I0831 09:31:53.948235 27242 net.cpp:157] Top shape: 12 12 16 16 (36864)
I0831 09:31:53.948243 27242 net.cpp:165] Memory required for data: 3692281888
I0831 09:31:53.948256 27242 layer_factory.hpp:77] Creating layer res5b_relu_mbox_conf_scale
I0831 09:31:53.948269 27242 net.cpp:100] Creating Layer res5b_relu_mbox_conf_scale
I0831 09:31:53.948278 27242 net.cpp:434] res5b_relu_mbox_conf_scale <- res5b_relu_mbox_conf
I0831 09:31:53.948288 27242 net.cpp:395] res5b_relu_mbox_conf_scale -> res5b_relu_mbox_conf (in-place)
I0831 09:31:53.948362 27242 layer_factory.hpp:77] Creating layer res5b_relu_mbox_conf_scale
I0831 09:31:53.948536 27242 net.cpp:150] Setting up res5b_relu_mbox_conf_scale
I0831 09:31:53.948552 27242 net.cpp:157] Top shape: 12 12 16 16 (36864)
I0831 09:31:53.948559 27242 net.cpp:165] Memory required for data: 3692429344
I0831 09:31:53.948570 27242 layer_factory.hpp:77] Creating layer res5b_relu_mbox_conf_perm
I0831 09:31:53.948582 27242 net.cpp:100] Creating Layer res5b_relu_mbox_conf_perm
I0831 09:31:53.948591 27242 net.cpp:434] res5b_relu_mbox_conf_perm <- res5b_relu_mbox_conf
I0831 09:31:53.948604 27242 net.cpp:408] res5b_relu_mbox_conf_perm -> res5b_relu_mbox_conf_perm
I0831 09:31:53.948765 27242 net.cpp:150] Setting up res5b_relu_mbox_conf_perm
I0831 09:31:53.948782 27242 net.cpp:157] Top shape: 12 16 16 12 (36864)
I0831 09:31:53.948789 27242 net.cpp:165] Memory required for data: 3692576800
I0831 09:31:53.948796 27242 layer_factory.hpp:77] Creating layer res5b_relu_mbox_conf_flat
I0831 09:31:53.948809 27242 net.cpp:100] Creating Layer res5b_relu_mbox_conf_flat
I0831 09:31:53.948833 27242 net.cpp:434] res5b_relu_mbox_conf_flat <- res5b_relu_mbox_conf_perm
I0831 09:31:53.948849 27242 net.cpp:408] res5b_relu_mbox_conf_flat -> res5b_relu_mbox_conf_flat
I0831 09:31:53.948891 27242 net.cpp:150] Setting up res5b_relu_mbox_conf_flat
I0831 09:31:53.948904 27242 net.cpp:157] Top shape: 12 3072 (36864)
I0831 09:31:53.948911 27242 net.cpp:165] Memory required for data: 3692724256
I0831 09:31:53.948917 27242 layer_factory.hpp:77] Creating layer res5b_relu_mbox_priorbox
I0831 09:31:53.948935 27242 net.cpp:100] Creating Layer res5b_relu_mbox_priorbox
I0831 09:31:53.948943 27242 net.cpp:434] res5b_relu_mbox_priorbox <- res5b_res5b_relu_0_split_3
I0831 09:31:53.948952 27242 net.cpp:434] res5b_relu_mbox_priorbox <- data_data_0_split_2
I0831 09:31:53.948967 27242 net.cpp:408] res5b_relu_mbox_priorbox -> res5b_relu_mbox_priorbox
I0831 09:31:53.949012 27242 net.cpp:150] Setting up res5b_relu_mbox_priorbox
I0831 09:31:53.949025 27242 net.cpp:157] Top shape: 1 2 6144 (12288)
I0831 09:31:53.949034 27242 net.cpp:165] Memory required for data: 3692773408
I0831 09:31:53.949043 27242 layer_factory.hpp:77] Creating layer conv7_2_mbox_loc
I0831 09:31:53.949060 27242 net.cpp:100] Creating Layer conv7_2_mbox_loc
I0831 09:31:53.949072 27242 net.cpp:434] conv7_2_mbox_loc <- conv7_2_conv7_2_relu_0_split_1
I0831 09:31:53.949087 27242 net.cpp:408] conv7_2_mbox_loc -> conv7_2_mbox_loc
I0831 09:31:53.950212 27242 net.cpp:150] Setting up conv7_2_mbox_loc
I0831 09:31:53.950229 27242 net.cpp:157] Top shape: 12 24 8 8 (18432)
I0831 09:31:53.950235 27242 net.cpp:165] Memory required for data: 3692847136
I0831 09:31:53.950245 27242 layer_factory.hpp:77] Creating layer conv7_2_mbox_loc_bn
I0831 09:31:53.950256 27242 net.cpp:100] Creating Layer conv7_2_mbox_loc_bn
I0831 09:31:53.950264 27242 net.cpp:434] conv7_2_mbox_loc_bn <- conv7_2_mbox_loc
I0831 09:31:53.950278 27242 net.cpp:395] conv7_2_mbox_loc_bn -> conv7_2_mbox_loc (in-place)
I0831 09:31:53.950567 27242 net.cpp:150] Setting up conv7_2_mbox_loc_bn
I0831 09:31:53.950583 27242 net.cpp:157] Top shape: 12 24 8 8 (18432)
I0831 09:31:53.950590 27242 net.cpp:165] Memory required for data: 3692920864
I0831 09:31:53.950604 27242 layer_factory.hpp:77] Creating layer conv7_2_mbox_loc_scale
I0831 09:31:53.950620 27242 net.cpp:100] Creating Layer conv7_2_mbox_loc_scale
I0831 09:31:53.950629 27242 net.cpp:434] conv7_2_mbox_loc_scale <- conv7_2_mbox_loc
I0831 09:31:53.950639 27242 net.cpp:395] conv7_2_mbox_loc_scale -> conv7_2_mbox_loc (in-place)
I0831 09:31:53.950713 27242 layer_factory.hpp:77] Creating layer conv7_2_mbox_loc_scale
I0831 09:31:53.950901 27242 net.cpp:150] Setting up conv7_2_mbox_loc_scale
I0831 09:31:53.950917 27242 net.cpp:157] Top shape: 12 24 8 8 (18432)
I0831 09:31:53.950925 27242 net.cpp:165] Memory required for data: 3692994592
I0831 09:31:53.950937 27242 layer_factory.hpp:77] Creating layer conv7_2_mbox_loc_perm
I0831 09:31:53.950949 27242 net.cpp:100] Creating Layer conv7_2_mbox_loc_perm
I0831 09:31:53.950958 27242 net.cpp:434] conv7_2_mbox_loc_perm <- conv7_2_mbox_loc
I0831 09:31:53.950970 27242 net.cpp:408] conv7_2_mbox_loc_perm -> conv7_2_mbox_loc_perm
I0831 09:31:53.951110 27242 net.cpp:150] Setting up conv7_2_mbox_loc_perm
I0831 09:31:53.951129 27242 net.cpp:157] Top shape: 12 8 8 24 (18432)
I0831 09:31:53.951136 27242 net.cpp:165] Memory required for data: 3693068320
I0831 09:31:53.951143 27242 layer_factory.hpp:77] Creating layer conv7_2_mbox_loc_flat
I0831 09:31:53.951153 27242 net.cpp:100] Creating Layer conv7_2_mbox_loc_flat
I0831 09:31:53.951159 27242 net.cpp:434] conv7_2_mbox_loc_flat <- conv7_2_mbox_loc_perm
I0831 09:31:53.951171 27242 net.cpp:408] conv7_2_mbox_loc_flat -> conv7_2_mbox_loc_flat
I0831 09:31:53.951211 27242 net.cpp:150] Setting up conv7_2_mbox_loc_flat
I0831 09:31:53.951225 27242 net.cpp:157] Top shape: 12 1536 (18432)
I0831 09:31:53.951230 27242 net.cpp:165] Memory required for data: 3693142048
I0831 09:31:53.951241 27242 layer_factory.hpp:77] Creating layer conv7_2_mbox_conf
I0831 09:31:53.951278 27242 net.cpp:100] Creating Layer conv7_2_mbox_conf
I0831 09:31:53.951289 27242 net.cpp:434] conv7_2_mbox_conf <- conv7_2_conv7_2_relu_0_split_2
I0831 09:31:53.951303 27242 net.cpp:408] conv7_2_mbox_conf -> conv7_2_mbox_conf
I0831 09:31:53.951997 27242 net.cpp:150] Setting up conv7_2_mbox_conf
I0831 09:31:53.952014 27242 net.cpp:157] Top shape: 12 12 8 8 (9216)
I0831 09:31:53.952023 27242 net.cpp:165] Memory required for data: 3693178912
I0831 09:31:53.952033 27242 layer_factory.hpp:77] Creating layer conv7_2_mbox_conf_bn
I0831 09:31:53.952046 27242 net.cpp:100] Creating Layer conv7_2_mbox_conf_bn
I0831 09:31:53.952055 27242 net.cpp:434] conv7_2_mbox_conf_bn <- conv7_2_mbox_conf
I0831 09:31:53.952064 27242 net.cpp:395] conv7_2_mbox_conf_bn -> conv7_2_mbox_conf (in-place)
I0831 09:31:53.952340 27242 net.cpp:150] Setting up conv7_2_mbox_conf_bn
I0831 09:31:53.952355 27242 net.cpp:157] Top shape: 12 12 8 8 (9216)
I0831 09:31:53.952365 27242 net.cpp:165] Memory required for data: 3693215776
I0831 09:31:53.952379 27242 layer_factory.hpp:77] Creating layer conv7_2_mbox_conf_scale
I0831 09:31:53.952396 27242 net.cpp:100] Creating Layer conv7_2_mbox_conf_scale
I0831 09:31:53.952407 27242 net.cpp:434] conv7_2_mbox_conf_scale <- conv7_2_mbox_conf
I0831 09:31:53.952419 27242 net.cpp:395] conv7_2_mbox_conf_scale -> conv7_2_mbox_conf (in-place)
I0831 09:31:53.952489 27242 layer_factory.hpp:77] Creating layer conv7_2_mbox_conf_scale
I0831 09:31:53.952680 27242 net.cpp:150] Setting up conv7_2_mbox_conf_scale
I0831 09:31:53.952697 27242 net.cpp:157] Top shape: 12 12 8 8 (9216)
I0831 09:31:53.952704 27242 net.cpp:165] Memory required for data: 3693252640
I0831 09:31:53.952716 27242 layer_factory.hpp:77] Creating layer conv7_2_mbox_conf_perm
I0831 09:31:53.952728 27242 net.cpp:100] Creating Layer conv7_2_mbox_conf_perm
I0831 09:31:53.952736 27242 net.cpp:434] conv7_2_mbox_conf_perm <- conv7_2_mbox_conf
I0831 09:31:53.952749 27242 net.cpp:408] conv7_2_mbox_conf_perm -> conv7_2_mbox_conf_perm
I0831 09:31:53.952888 27242 net.cpp:150] Setting up conv7_2_mbox_conf_perm
I0831 09:31:53.952906 27242 net.cpp:157] Top shape: 12 8 8 12 (9216)
I0831 09:31:53.952913 27242 net.cpp:165] Memory required for data: 3693289504
I0831 09:31:53.952920 27242 layer_factory.hpp:77] Creating layer conv7_2_mbox_conf_flat
I0831 09:31:53.952930 27242 net.cpp:100] Creating Layer conv7_2_mbox_conf_flat
I0831 09:31:53.952939 27242 net.cpp:434] conv7_2_mbox_conf_flat <- conv7_2_mbox_conf_perm
I0831 09:31:53.952955 27242 net.cpp:408] conv7_2_mbox_conf_flat -> conv7_2_mbox_conf_flat
I0831 09:31:53.952996 27242 net.cpp:150] Setting up conv7_2_mbox_conf_flat
I0831 09:31:53.953009 27242 net.cpp:157] Top shape: 12 768 (9216)
I0831 09:31:53.953016 27242 net.cpp:165] Memory required for data: 3693326368
I0831 09:31:53.953024 27242 layer_factory.hpp:77] Creating layer conv7_2_mbox_priorbox
I0831 09:31:53.953039 27242 net.cpp:100] Creating Layer conv7_2_mbox_priorbox
I0831 09:31:53.953048 27242 net.cpp:434] conv7_2_mbox_priorbox <- conv7_2_conv7_2_relu_0_split_3
I0831 09:31:53.953056 27242 net.cpp:434] conv7_2_mbox_priorbox <- data_data_0_split_3
I0831 09:31:53.953073 27242 net.cpp:408] conv7_2_mbox_priorbox -> conv7_2_mbox_priorbox
I0831 09:31:53.953119 27242 net.cpp:150] Setting up conv7_2_mbox_priorbox
I0831 09:31:53.953133 27242 net.cpp:157] Top shape: 1 2 1536 (3072)
I0831 09:31:53.953141 27242 net.cpp:165] Memory required for data: 3693338656
I0831 09:31:53.953147 27242 layer_factory.hpp:77] Creating layer conv8_2_mbox_loc
I0831 09:31:53.953166 27242 net.cpp:100] Creating Layer conv8_2_mbox_loc
I0831 09:31:53.953176 27242 net.cpp:434] conv8_2_mbox_loc <- conv8_2_conv8_2_relu_0_split_1
I0831 09:31:53.953191 27242 net.cpp:408] conv8_2_mbox_loc -> conv8_2_mbox_loc
I0831 09:31:53.955026 27242 net.cpp:150] Setting up conv8_2_mbox_loc
I0831 09:31:53.955047 27242 net.cpp:157] Top shape: 12 24 4 4 (4608)
I0831 09:31:53.955054 27242 net.cpp:165] Memory required for data: 3693357088
I0831 09:31:53.955065 27242 layer_factory.hpp:77] Creating layer conv8_2_mbox_loc_bn
I0831 09:31:53.955094 27242 net.cpp:100] Creating Layer conv8_2_mbox_loc_bn
I0831 09:31:53.955108 27242 net.cpp:434] conv8_2_mbox_loc_bn <- conv8_2_mbox_loc
I0831 09:31:53.955121 27242 net.cpp:395] conv8_2_mbox_loc_bn -> conv8_2_mbox_loc (in-place)
I0831 09:31:53.955406 27242 net.cpp:150] Setting up conv8_2_mbox_loc_bn
I0831 09:31:53.955422 27242 net.cpp:157] Top shape: 12 24 4 4 (4608)
I0831 09:31:53.955430 27242 net.cpp:165] Memory required for data: 3693375520
I0831 09:31:53.955443 27242 layer_factory.hpp:77] Creating layer conv8_2_mbox_loc_scale
I0831 09:31:53.955459 27242 net.cpp:100] Creating Layer conv8_2_mbox_loc_scale
I0831 09:31:53.955468 27242 net.cpp:434] conv8_2_mbox_loc_scale <- conv8_2_mbox_loc
I0831 09:31:53.955478 27242 net.cpp:395] conv8_2_mbox_loc_scale -> conv8_2_mbox_loc (in-place)
I0831 09:31:53.955554 27242 layer_factory.hpp:77] Creating layer conv8_2_mbox_loc_scale
I0831 09:31:53.955729 27242 net.cpp:150] Setting up conv8_2_mbox_loc_scale
I0831 09:31:53.955745 27242 net.cpp:157] Top shape: 12 24 4 4 (4608)
I0831 09:31:53.955750 27242 net.cpp:165] Memory required for data: 3693393952
I0831 09:31:53.955761 27242 layer_factory.hpp:77] Creating layer conv8_2_mbox_loc_perm
I0831 09:31:53.955781 27242 net.cpp:100] Creating Layer conv8_2_mbox_loc_perm
I0831 09:31:53.955790 27242 net.cpp:434] conv8_2_mbox_loc_perm <- conv8_2_mbox_loc
I0831 09:31:53.955801 27242 net.cpp:408] conv8_2_mbox_loc_perm -> conv8_2_mbox_loc_perm
I0831 09:31:53.955940 27242 net.cpp:150] Setting up conv8_2_mbox_loc_perm
I0831 09:31:53.955956 27242 net.cpp:157] Top shape: 12 4 4 24 (4608)
I0831 09:31:53.955963 27242 net.cpp:165] Memory required for data: 3693412384
I0831 09:31:53.955971 27242 layer_factory.hpp:77] Creating layer conv8_2_mbox_loc_flat
I0831 09:31:53.955981 27242 net.cpp:100] Creating Layer conv8_2_mbox_loc_flat
I0831 09:31:53.955988 27242 net.cpp:434] conv8_2_mbox_loc_flat <- conv8_2_mbox_loc_perm
I0831 09:31:53.956004 27242 net.cpp:408] conv8_2_mbox_loc_flat -> conv8_2_mbox_loc_flat
I0831 09:31:53.956048 27242 net.cpp:150] Setting up conv8_2_mbox_loc_flat
I0831 09:31:53.956060 27242 net.cpp:157] Top shape: 12 384 (4608)
I0831 09:31:53.956068 27242 net.cpp:165] Memory required for data: 3693430816
I0831 09:31:53.956073 27242 layer_factory.hpp:77] Creating layer conv8_2_mbox_conf
I0831 09:31:53.956092 27242 net.cpp:100] Creating Layer conv8_2_mbox_conf
I0831 09:31:53.956102 27242 net.cpp:434] conv8_2_mbox_conf <- conv8_2_conv8_2_relu_0_split_2
I0831 09:31:53.956116 27242 net.cpp:408] conv8_2_mbox_conf -> conv8_2_mbox_conf
I0831 09:31:53.956816 27242 net.cpp:150] Setting up conv8_2_mbox_conf
I0831 09:31:53.956835 27242 net.cpp:157] Top shape: 12 12 4 4 (2304)
I0831 09:31:53.956842 27242 net.cpp:165] Memory required for data: 3693440032
I0831 09:31:53.956856 27242 layer_factory.hpp:77] Creating layer conv8_2_mbox_conf_bn
I0831 09:31:53.956872 27242 net.cpp:100] Creating Layer conv8_2_mbox_conf_bn
I0831 09:31:53.956883 27242 net.cpp:434] conv8_2_mbox_conf_bn <- conv8_2_mbox_conf
I0831 09:31:53.956900 27242 net.cpp:395] conv8_2_mbox_conf_bn -> conv8_2_mbox_conf (in-place)
I0831 09:31:53.957176 27242 net.cpp:150] Setting up conv8_2_mbox_conf_bn
I0831 09:31:53.957192 27242 net.cpp:157] Top shape: 12 12 4 4 (2304)
I0831 09:31:53.957202 27242 net.cpp:165] Memory required for data: 3693449248
I0831 09:31:53.957219 27242 layer_factory.hpp:77] Creating layer conv8_2_mbox_conf_scale
I0831 09:31:53.957237 27242 net.cpp:100] Creating Layer conv8_2_mbox_conf_scale
I0831 09:31:53.957244 27242 net.cpp:434] conv8_2_mbox_conf_scale <- conv8_2_mbox_conf
I0831 09:31:53.957255 27242 net.cpp:395] conv8_2_mbox_conf_scale -> conv8_2_mbox_conf (in-place)
I0831 09:31:53.957321 27242 layer_factory.hpp:77] Creating layer conv8_2_mbox_conf_scale
I0831 09:31:53.957499 27242 net.cpp:150] Setting up conv8_2_mbox_conf_scale
I0831 09:31:53.957515 27242 net.cpp:157] Top shape: 12 12 4 4 (2304)
I0831 09:31:53.957521 27242 net.cpp:165] Memory required for data: 3693458464
I0831 09:31:53.957532 27242 layer_factory.hpp:77] Creating layer conv8_2_mbox_conf_perm
I0831 09:31:53.957561 27242 net.cpp:100] Creating Layer conv8_2_mbox_conf_perm
I0831 09:31:53.957571 27242 net.cpp:434] conv8_2_mbox_conf_perm <- conv8_2_mbox_conf
I0831 09:31:53.957582 27242 net.cpp:408] conv8_2_mbox_conf_perm -> conv8_2_mbox_conf_perm
I0831 09:31:53.957726 27242 net.cpp:150] Setting up conv8_2_mbox_conf_perm
I0831 09:31:53.957742 27242 net.cpp:157] Top shape: 12 4 4 12 (2304)
I0831 09:31:53.957748 27242 net.cpp:165] Memory required for data: 3693467680
I0831 09:31:53.957756 27242 layer_factory.hpp:77] Creating layer conv8_2_mbox_conf_flat
I0831 09:31:53.957765 27242 net.cpp:100] Creating Layer conv8_2_mbox_conf_flat
I0831 09:31:53.957773 27242 net.cpp:434] conv8_2_mbox_conf_flat <- conv8_2_mbox_conf_perm
I0831 09:31:53.957787 27242 net.cpp:408] conv8_2_mbox_conf_flat -> conv8_2_mbox_conf_flat
I0831 09:31:53.957830 27242 net.cpp:150] Setting up conv8_2_mbox_conf_flat
I0831 09:31:53.957844 27242 net.cpp:157] Top shape: 12 192 (2304)
I0831 09:31:53.957850 27242 net.cpp:165] Memory required for data: 3693476896
I0831 09:31:53.957857 27242 layer_factory.hpp:77] Creating layer conv8_2_mbox_priorbox
I0831 09:31:53.957868 27242 net.cpp:100] Creating Layer conv8_2_mbox_priorbox
I0831 09:31:53.957876 27242 net.cpp:434] conv8_2_mbox_priorbox <- conv8_2_conv8_2_relu_0_split_3
I0831 09:31:53.957888 27242 net.cpp:434] conv8_2_mbox_priorbox <- data_data_0_split_4
I0831 09:31:53.957901 27242 net.cpp:408] conv8_2_mbox_priorbox -> conv8_2_mbox_priorbox
I0831 09:31:53.957947 27242 net.cpp:150] Setting up conv8_2_mbox_priorbox
I0831 09:31:53.957962 27242 net.cpp:157] Top shape: 1 2 384 (768)
I0831 09:31:53.957968 27242 net.cpp:165] Memory required for data: 3693479968
I0831 09:31:53.957974 27242 layer_factory.hpp:77] Creating layer conv9_2_mbox_loc
I0831 09:31:53.957996 27242 net.cpp:100] Creating Layer conv9_2_mbox_loc
I0831 09:31:53.958006 27242 net.cpp:434] conv9_2_mbox_loc <- conv9_2_conv9_2_relu_0_split_1
I0831 09:31:53.958022 27242 net.cpp:408] conv9_2_mbox_loc -> conv9_2_mbox_loc
I0831 09:31:53.959147 27242 net.cpp:150] Setting up conv9_2_mbox_loc
I0831 09:31:53.959167 27242 net.cpp:157] Top shape: 12 24 2 2 (1152)
I0831 09:31:53.959173 27242 net.cpp:165] Memory required for data: 3693484576
I0831 09:31:53.959182 27242 layer_factory.hpp:77] Creating layer conv9_2_mbox_loc_bn
I0831 09:31:53.959195 27242 net.cpp:100] Creating Layer conv9_2_mbox_loc_bn
I0831 09:31:53.959203 27242 net.cpp:434] conv9_2_mbox_loc_bn <- conv9_2_mbox_loc
I0831 09:31:53.959216 27242 net.cpp:395] conv9_2_mbox_loc_bn -> conv9_2_mbox_loc (in-place)
I0831 09:31:53.959488 27242 net.cpp:150] Setting up conv9_2_mbox_loc_bn
I0831 09:31:53.959504 27242 net.cpp:157] Top shape: 12 24 2 2 (1152)
I0831 09:31:53.959511 27242 net.cpp:165] Memory required for data: 3693489184
I0831 09:31:53.959525 27242 layer_factory.hpp:77] Creating layer conv9_2_mbox_loc_scale
I0831 09:31:53.959540 27242 net.cpp:100] Creating Layer conv9_2_mbox_loc_scale
I0831 09:31:53.959549 27242 net.cpp:434] conv9_2_mbox_loc_scale <- conv9_2_mbox_loc
I0831 09:31:53.959559 27242 net.cpp:395] conv9_2_mbox_loc_scale -> conv9_2_mbox_loc (in-place)
I0831 09:31:53.959626 27242 layer_factory.hpp:77] Creating layer conv9_2_mbox_loc_scale
I0831 09:31:53.959801 27242 net.cpp:150] Setting up conv9_2_mbox_loc_scale
I0831 09:31:53.959820 27242 net.cpp:157] Top shape: 12 24 2 2 (1152)
I0831 09:31:53.959826 27242 net.cpp:165] Memory required for data: 3693493792
I0831 09:31:53.959837 27242 layer_factory.hpp:77] Creating layer conv9_2_mbox_loc_perm
I0831 09:31:53.959851 27242 net.cpp:100] Creating Layer conv9_2_mbox_loc_perm
I0831 09:31:53.959859 27242 net.cpp:434] conv9_2_mbox_loc_perm <- conv9_2_mbox_loc
I0831 09:31:53.959869 27242 net.cpp:408] conv9_2_mbox_loc_perm -> conv9_2_mbox_loc_perm
I0831 09:31:53.960009 27242 net.cpp:150] Setting up conv9_2_mbox_loc_perm
I0831 09:31:53.960026 27242 net.cpp:157] Top shape: 12 2 2 24 (1152)
I0831 09:31:53.960032 27242 net.cpp:165] Memory required for data: 3693498400
I0831 09:31:53.960038 27242 layer_factory.hpp:77] Creating layer conv9_2_mbox_loc_flat
I0831 09:31:53.960069 27242 net.cpp:100] Creating Layer conv9_2_mbox_loc_flat
I0831 09:31:53.960080 27242 net.cpp:434] conv9_2_mbox_loc_flat <- conv9_2_mbox_loc_perm
I0831 09:31:53.960090 27242 net.cpp:408] conv9_2_mbox_loc_flat -> conv9_2_mbox_loc_flat
I0831 09:31:53.960136 27242 net.cpp:150] Setting up conv9_2_mbox_loc_flat
I0831 09:31:53.960150 27242 net.cpp:157] Top shape: 12 96 (1152)
I0831 09:31:53.960155 27242 net.cpp:165] Memory required for data: 3693503008
I0831 09:31:53.960161 27242 layer_factory.hpp:77] Creating layer conv9_2_mbox_conf
I0831 09:31:53.960178 27242 net.cpp:100] Creating Layer conv9_2_mbox_conf
I0831 09:31:53.960187 27242 net.cpp:434] conv9_2_mbox_conf <- conv9_2_conv9_2_relu_0_split_2
I0831 09:31:53.960201 27242 net.cpp:408] conv9_2_mbox_conf -> conv9_2_mbox_conf
I0831 09:31:53.960909 27242 net.cpp:150] Setting up conv9_2_mbox_conf
I0831 09:31:53.960927 27242 net.cpp:157] Top shape: 12 12 2 2 (576)
I0831 09:31:53.960935 27242 net.cpp:165] Memory required for data: 3693505312
I0831 09:31:53.960945 27242 layer_factory.hpp:77] Creating layer conv9_2_mbox_conf_bn
I0831 09:31:53.960956 27242 net.cpp:100] Creating Layer conv9_2_mbox_conf_bn
I0831 09:31:53.960964 27242 net.cpp:434] conv9_2_mbox_conf_bn <- conv9_2_mbox_conf
I0831 09:31:53.960978 27242 net.cpp:395] conv9_2_mbox_conf_bn -> conv9_2_mbox_conf (in-place)
I0831 09:31:53.961256 27242 net.cpp:150] Setting up conv9_2_mbox_conf_bn
I0831 09:31:53.961272 27242 net.cpp:157] Top shape: 12 12 2 2 (576)
I0831 09:31:53.961278 27242 net.cpp:165] Memory required for data: 3693507616
I0831 09:31:53.961292 27242 layer_factory.hpp:77] Creating layer conv9_2_mbox_conf_scale
I0831 09:31:53.961308 27242 net.cpp:100] Creating Layer conv9_2_mbox_conf_scale
I0831 09:31:53.961319 27242 net.cpp:434] conv9_2_mbox_conf_scale <- conv9_2_mbox_conf
I0831 09:31:53.961333 27242 net.cpp:395] conv9_2_mbox_conf_scale -> conv9_2_mbox_conf (in-place)
I0831 09:31:53.961400 27242 layer_factory.hpp:77] Creating layer conv9_2_mbox_conf_scale
I0831 09:31:53.961582 27242 net.cpp:150] Setting up conv9_2_mbox_conf_scale
I0831 09:31:53.961601 27242 net.cpp:157] Top shape: 12 12 2 2 (576)
I0831 09:31:53.961607 27242 net.cpp:165] Memory required for data: 3693509920
I0831 09:31:53.961618 27242 layer_factory.hpp:77] Creating layer conv9_2_mbox_conf_perm
I0831 09:31:53.961632 27242 net.cpp:100] Creating Layer conv9_2_mbox_conf_perm
I0831 09:31:53.961639 27242 net.cpp:434] conv9_2_mbox_conf_perm <- conv9_2_mbox_conf
I0831 09:31:53.961649 27242 net.cpp:408] conv9_2_mbox_conf_perm -> conv9_2_mbox_conf_perm
I0831 09:31:53.961791 27242 net.cpp:150] Setting up conv9_2_mbox_conf_perm
I0831 09:31:53.961805 27242 net.cpp:157] Top shape: 12 2 2 12 (576)
I0831 09:31:53.961814 27242 net.cpp:165] Memory required for data: 3693512224
I0831 09:31:53.961822 27242 layer_factory.hpp:77] Creating layer conv9_2_mbox_conf_flat
I0831 09:31:53.961835 27242 net.cpp:100] Creating Layer conv9_2_mbox_conf_flat
I0831 09:31:53.961844 27242 net.cpp:434] conv9_2_mbox_conf_flat <- conv9_2_mbox_conf_perm
I0831 09:31:53.961854 27242 net.cpp:408] conv9_2_mbox_conf_flat -> conv9_2_mbox_conf_flat
I0831 09:31:53.961897 27242 net.cpp:150] Setting up conv9_2_mbox_conf_flat
I0831 09:31:53.961910 27242 net.cpp:157] Top shape: 12 48 (576)
I0831 09:31:53.961917 27242 net.cpp:165] Memory required for data: 3693514528
I0831 09:31:53.961923 27242 layer_factory.hpp:77] Creating layer conv9_2_mbox_priorbox
I0831 09:31:53.961939 27242 net.cpp:100] Creating Layer conv9_2_mbox_priorbox
I0831 09:31:53.961948 27242 net.cpp:434] conv9_2_mbox_priorbox <- conv9_2_conv9_2_relu_0_split_3
I0831 09:31:53.961957 27242 net.cpp:434] conv9_2_mbox_priorbox <- data_data_0_split_5
I0831 09:31:53.961969 27242 net.cpp:408] conv9_2_mbox_priorbox -> conv9_2_mbox_priorbox
I0831 09:31:53.962015 27242 net.cpp:150] Setting up conv9_2_mbox_priorbox
I0831 09:31:53.962028 27242 net.cpp:157] Top shape: 1 2 96 (192)
I0831 09:31:53.962036 27242 net.cpp:165] Memory required for data: 3693515296
I0831 09:31:53.962044 27242 layer_factory.hpp:77] Creating layer pool6_mbox_loc
I0831 09:31:53.962076 27242 net.cpp:100] Creating Layer pool6_mbox_loc
I0831 09:31:53.962087 27242 net.cpp:434] pool6_mbox_loc <- pool6_pool6_0_split_0
I0831 09:31:53.962105 27242 net.cpp:408] pool6_mbox_loc -> pool6_mbox_loc
I0831 09:31:53.963217 27242 net.cpp:150] Setting up pool6_mbox_loc
I0831 09:31:53.963233 27242 net.cpp:157] Top shape: 12 24 1 1 (288)
I0831 09:31:53.963240 27242 net.cpp:165] Memory required for data: 3693516448
I0831 09:31:53.963250 27242 layer_factory.hpp:77] Creating layer pool6_mbox_loc_bn
I0831 09:31:53.963260 27242 net.cpp:100] Creating Layer pool6_mbox_loc_bn
I0831 09:31:53.963269 27242 net.cpp:434] pool6_mbox_loc_bn <- pool6_mbox_loc
I0831 09:31:53.963281 27242 net.cpp:395] pool6_mbox_loc_bn -> pool6_mbox_loc (in-place)
I0831 09:31:53.963563 27242 net.cpp:150] Setting up pool6_mbox_loc_bn
I0831 09:31:53.963578 27242 net.cpp:157] Top shape: 12 24 1 1 (288)
I0831 09:31:53.963585 27242 net.cpp:165] Memory required for data: 3693517600
I0831 09:31:53.963598 27242 layer_factory.hpp:77] Creating layer pool6_mbox_loc_scale
I0831 09:31:53.963618 27242 net.cpp:100] Creating Layer pool6_mbox_loc_scale
I0831 09:31:53.963626 27242 net.cpp:434] pool6_mbox_loc_scale <- pool6_mbox_loc
I0831 09:31:53.963639 27242 net.cpp:395] pool6_mbox_loc_scale -> pool6_mbox_loc (in-place)
I0831 09:31:53.963709 27242 layer_factory.hpp:77] Creating layer pool6_mbox_loc_scale
I0831 09:31:53.963891 27242 net.cpp:150] Setting up pool6_mbox_loc_scale
I0831 09:31:53.963907 27242 net.cpp:157] Top shape: 12 24 1 1 (288)
I0831 09:31:53.963912 27242 net.cpp:165] Memory required for data: 3693518752
I0831 09:31:53.963923 27242 layer_factory.hpp:77] Creating layer pool6_mbox_loc_perm
I0831 09:31:53.963938 27242 net.cpp:100] Creating Layer pool6_mbox_loc_perm
I0831 09:31:53.963946 27242 net.cpp:434] pool6_mbox_loc_perm <- pool6_mbox_loc
I0831 09:31:53.963956 27242 net.cpp:408] pool6_mbox_loc_perm -> pool6_mbox_loc_perm
I0831 09:31:53.964097 27242 net.cpp:150] Setting up pool6_mbox_loc_perm
I0831 09:31:53.964112 27242 net.cpp:157] Top shape: 12 1 1 24 (288)
I0831 09:31:53.964118 27242 net.cpp:165] Memory required for data: 3693519904
I0831 09:31:53.964123 27242 layer_factory.hpp:77] Creating layer pool6_mbox_loc_flat
I0831 09:31:53.964135 27242 net.cpp:100] Creating Layer pool6_mbox_loc_flat
I0831 09:31:53.964143 27242 net.cpp:434] pool6_mbox_loc_flat <- pool6_mbox_loc_perm
I0831 09:31:53.964155 27242 net.cpp:408] pool6_mbox_loc_flat -> pool6_mbox_loc_flat
I0831 09:31:53.964202 27242 net.cpp:150] Setting up pool6_mbox_loc_flat
I0831 09:31:53.964215 27242 net.cpp:157] Top shape: 12 24 (288)
I0831 09:31:53.964221 27242 net.cpp:165] Memory required for data: 3693521056
I0831 09:31:53.964227 27242 layer_factory.hpp:77] Creating layer pool6_mbox_conf
I0831 09:31:53.964243 27242 net.cpp:100] Creating Layer pool6_mbox_conf
I0831 09:31:53.964252 27242 net.cpp:434] pool6_mbox_conf <- pool6_pool6_0_split_1
I0831 09:31:53.964269 27242 net.cpp:408] pool6_mbox_conf -> pool6_mbox_conf
I0831 09:31:53.964972 27242 net.cpp:150] Setting up pool6_mbox_conf
I0831 09:31:53.964988 27242 net.cpp:157] Top shape: 12 12 1 1 (144)
I0831 09:31:53.964998 27242 net.cpp:165] Memory required for data: 3693521632
I0831 09:31:53.965009 27242 layer_factory.hpp:77] Creating layer pool6_mbox_conf_bn
I0831 09:31:53.965021 27242 net.cpp:100] Creating Layer pool6_mbox_conf_bn
I0831 09:31:53.965030 27242 net.cpp:434] pool6_mbox_conf_bn <- pool6_mbox_conf
I0831 09:31:53.965040 27242 net.cpp:395] pool6_mbox_conf_bn -> pool6_mbox_conf (in-place)
I0831 09:31:53.965312 27242 net.cpp:150] Setting up pool6_mbox_conf_bn
I0831 09:31:53.965327 27242 net.cpp:157] Top shape: 12 12 1 1 (144)
I0831 09:31:53.965335 27242 net.cpp:165] Memory required for data: 3693522208
I0831 09:31:53.965348 27242 layer_factory.hpp:77] Creating layer pool6_mbox_conf_scale
I0831 09:31:53.965363 27242 net.cpp:100] Creating Layer pool6_mbox_conf_scale
I0831 09:31:53.965373 27242 net.cpp:434] pool6_mbox_conf_scale <- pool6_mbox_conf
I0831 09:31:53.965382 27242 net.cpp:395] pool6_mbox_conf_scale -> pool6_mbox_conf (in-place)
I0831 09:31:53.965468 27242 layer_factory.hpp:77] Creating layer pool6_mbox_conf_scale
I0831 09:31:53.965653 27242 net.cpp:150] Setting up pool6_mbox_conf_scale
I0831 09:31:53.965668 27242 net.cpp:157] Top shape: 12 12 1 1 (144)
I0831 09:31:53.965675 27242 net.cpp:165] Memory required for data: 3693522784
I0831 09:31:53.965687 27242 layer_factory.hpp:77] Creating layer pool6_mbox_conf_perm
I0831 09:31:53.965701 27242 net.cpp:100] Creating Layer pool6_mbox_conf_perm
I0831 09:31:53.965710 27242 net.cpp:434] pool6_mbox_conf_perm <- pool6_mbox_conf
I0831 09:31:53.965720 27242 net.cpp:408] pool6_mbox_conf_perm -> pool6_mbox_conf_perm
I0831 09:31:53.965862 27242 net.cpp:150] Setting up pool6_mbox_conf_perm
I0831 09:31:53.965876 27242 net.cpp:157] Top shape: 12 1 1 12 (144)
I0831 09:31:53.965885 27242 net.cpp:165] Memory required for data: 3693523360
I0831 09:31:53.965893 27242 layer_factory.hpp:77] Creating layer pool6_mbox_conf_flat
I0831 09:31:53.965903 27242 net.cpp:100] Creating Layer pool6_mbox_conf_flat
I0831 09:31:53.965910 27242 net.cpp:434] pool6_mbox_conf_flat <- pool6_mbox_conf_perm
I0831 09:31:53.965927 27242 net.cpp:408] pool6_mbox_conf_flat -> pool6_mbox_conf_flat
I0831 09:31:53.965972 27242 net.cpp:150] Setting up pool6_mbox_conf_flat
I0831 09:31:53.965986 27242 net.cpp:157] Top shape: 12 12 (144)
I0831 09:31:53.965994 27242 net.cpp:165] Memory required for data: 3693523936
I0831 09:31:53.966001 27242 layer_factory.hpp:77] Creating layer pool6_mbox_priorbox
I0831 09:31:53.966012 27242 net.cpp:100] Creating Layer pool6_mbox_priorbox
I0831 09:31:53.966020 27242 net.cpp:434] pool6_mbox_priorbox <- pool6_pool6_0_split_2
I0831 09:31:53.966028 27242 net.cpp:434] pool6_mbox_priorbox <- data_data_0_split_6
I0831 09:31:53.966043 27242 net.cpp:408] pool6_mbox_priorbox -> pool6_mbox_priorbox
I0831 09:31:53.966089 27242 net.cpp:150] Setting up pool6_mbox_priorbox
I0831 09:31:53.966104 27242 net.cpp:157] Top shape: 1 2 24 (48)
I0831 09:31:53.966109 27242 net.cpp:165] Memory required for data: 3693524128
I0831 09:31:53.966120 27242 layer_factory.hpp:77] Creating layer mbox_loc
I0831 09:31:53.966132 27242 net.cpp:100] Creating Layer mbox_loc
I0831 09:31:53.966141 27242 net.cpp:434] mbox_loc <- res4b_relu_mbox_loc_flat
I0831 09:31:53.966150 27242 net.cpp:434] mbox_loc <- res5b_relu_mbox_loc_flat
I0831 09:31:53.966161 27242 net.cpp:434] mbox_loc <- conv7_2_mbox_loc_flat
I0831 09:31:53.966171 27242 net.cpp:434] mbox_loc <- conv8_2_mbox_loc_flat
I0831 09:31:53.966181 27242 net.cpp:434] mbox_loc <- conv9_2_mbox_loc_flat
I0831 09:31:53.966190 27242 net.cpp:434] mbox_loc <- pool6_mbox_loc_flat
I0831 09:31:53.966208 27242 net.cpp:408] mbox_loc -> mbox_loc
I0831 09:31:53.966262 27242 net.cpp:150] Setting up mbox_loc
I0831 09:31:53.966277 27242 net.cpp:157] Top shape: 12 24568 (294816)
I0831 09:31:53.966284 27242 net.cpp:165] Memory required for data: 3694703392
I0831 09:31:53.966291 27242 layer_factory.hpp:77] Creating layer mbox_conf
I0831 09:31:53.966301 27242 net.cpp:100] Creating Layer mbox_conf
I0831 09:31:53.966308 27242 net.cpp:434] mbox_conf <- res4b_relu_mbox_conf_flat
I0831 09:31:53.966317 27242 net.cpp:434] mbox_conf <- res5b_relu_mbox_conf_flat
I0831 09:31:53.966327 27242 net.cpp:434] mbox_conf <- conv7_2_mbox_conf_flat
I0831 09:31:53.966336 27242 net.cpp:434] mbox_conf <- conv8_2_mbox_conf_flat
I0831 09:31:53.966344 27242 net.cpp:434] mbox_conf <- conv9_2_mbox_conf_flat
I0831 09:31:53.966352 27242 net.cpp:434] mbox_conf <- pool6_mbox_conf_flat
I0831 09:31:53.966364 27242 net.cpp:408] mbox_conf -> mbox_conf
I0831 09:31:53.966406 27242 net.cpp:150] Setting up mbox_conf
I0831 09:31:53.966420 27242 net.cpp:157] Top shape: 12 12284 (147408)
I0831 09:31:53.966428 27242 net.cpp:165] Memory required for data: 3695293024
I0831 09:31:53.966434 27242 layer_factory.hpp:77] Creating layer mbox_priorbox
I0831 09:31:53.966444 27242 net.cpp:100] Creating Layer mbox_priorbox
I0831 09:31:53.966451 27242 net.cpp:434] mbox_priorbox <- res4b_relu_mbox_priorbox
I0831 09:31:53.966459 27242 net.cpp:434] mbox_priorbox <- res5b_relu_mbox_priorbox
I0831 09:31:53.966482 27242 net.cpp:434] mbox_priorbox <- conv7_2_mbox_priorbox
I0831 09:31:53.966491 27242 net.cpp:434] mbox_priorbox <- conv8_2_mbox_priorbox
I0831 09:31:53.966498 27242 net.cpp:434] mbox_priorbox <- conv9_2_mbox_priorbox
I0831 09:31:53.966506 27242 net.cpp:434] mbox_priorbox <- pool6_mbox_priorbox
I0831 09:31:53.966516 27242 net.cpp:408] mbox_priorbox -> mbox_priorbox
I0831 09:31:53.966594 27242 net.cpp:150] Setting up mbox_priorbox
I0831 09:31:53.966611 27242 net.cpp:157] Top shape: 1 2 24568 (49136)
I0831 09:31:53.966619 27242 net.cpp:165] Memory required for data: 3695489568
I0831 09:31:53.966624 27242 layer_factory.hpp:77] Creating layer mbox_loss
I0831 09:31:53.966641 27242 net.cpp:100] Creating Layer mbox_loss
I0831 09:31:53.966650 27242 net.cpp:434] mbox_loss <- mbox_loc
I0831 09:31:53.966658 27242 net.cpp:434] mbox_loss <- mbox_conf
I0831 09:31:53.966666 27242 net.cpp:434] mbox_loss <- mbox_priorbox
…
  type: "AnnotatedData"
  top: "data"
  top: "label"
  include {
    phase: TEST
  }
  transform_param {
    mean_value: 88
    mean_value: 97
    mean_value: 118
    force_color: true
    resize_param {
      prob: 1
      resize_mode: WARP
      height: 512
      width: 512
      interp_mode: LINEAR
    }
  }
  data_param {
    source: "/mnt/mfs3/zhongchong/task-face/lmdb/val_lmdb"
    batch_size: 4
    backend: LMDB
  }
  annotated_data_param {
    batch_sampler {
    }
    label_map_file: "/mnt/mfs3/zhongchong/task-face/labelmap.prototxt"
  }
}
layer {
  name: "conv1"
  type: "Convolution"
  bottom: "data"
  top: "conv1"
  param {
    lr_mult: 1
    decay_mult: 1
  }
  convolution_param {
    num_output: 64
    bias_term: false
    pad: 3
    kernel_size: 7
    stride: 2
    weight_filler {
      type: "gaussian"
      std: 0.01
    }
  }
}
layer {
  name: "bn_conv1"
  type: "BatchNorm"
  bottom: "conv1"
  top: "conv1"
  batch_norm_param {
    moving_average_fraction: 0.999
    eps: 0.001
  }
}
layer {
  name: "scale_conv1"
  type: "Scale"
  bottom: "conv1"
  top: "conv1"
  param {
    lr_mult: 1
    decay_mult: 0
  }
  param {
    lr_mult: 1
    decay_mult: 0
  }
  scale_param {
    filler {
      type: "constant"
      value: 1
    }
    bias_term: true
    bias_filler {
      type: "constant"
      value: 0
    }
  }
}
layer {
  name: "conv1_relu"
  type: "ReLU"
  bottom: "conv1"
  top: "conv1"
}
layer {
  name: "pool1"
  type: "Pooling"
  bottom: "conv1"
  top: "pool1"
  pooling_param {
    pool: MAX
    kernel_size: 3
    stride: 2
  }
}
layer {
  name: "res2a_branch1"
  type: "Convolution"
  bottom: "pool1"
  top: "res2a_branch1"
  param {
    lr_mult: 1
    decay_mult: 1
  }
  convolution_param {
    num_output: 64
    bias_term: false
    pad: 0
    kernel_size: 1
    stride: 1
    weight_filler {
      type: "gaussian"
      std: 0.01
    }
  }
}
layer {
  name: "bn2a_branch1"
  type: "BatchNorm"
  bottom: "res2a_branch1"
  top: "res2a_branch1"
  batch_norm_param {
    moving_average_fraction: 0.999
    eps: 0.001
  }
}
layer {
  name: "scale2a_branch1"
  type: "Scale"
  bottom: "res2a_branch1"
  top: "res2a_branch1"
  param {
    lr_mult: 1
    decay_mult: 0
  }
  param {
    lr_mult: 1
    decay_mult: 0
  }
  scale_param {
    filler {
      type: "constant"
      value: 1
    }
    bias_term: true
    bias_filler {
      type: "constant"
      value: 0
    }
  }
}
layer {
  name: "res2a_branch2a"
  type: "Convolution"
  bottom: "pool1"
  top: "res2a_branch2a"
  param {
    lr_mult: 1
    decay_mult: 1
  }
  convolution_param {
    num_output: 64
    bias_term: false
    pad: 1
    kernel_size: 3
    stride: 1
    weight_filler {
      type: "gaussian"
      std: 0.01
    }
  }
}
layer {
  name: "bn2a_branch2a"
  type: "BatchNorm"
  bottom: "res2a_branch2a"
  top: "res2a_branch2a"
  batch_norm_param {
    moving_average_fraction: 0.999
    eps: 0.001
  }
}
layer {
  name: "scale2a_branch2a"
  type: "Scale"
  bottom: "res2a_branch2a"
  top: "res2a_branch2a"
  param {
    lr_mult: 1
    decay_mult: 0
  }
  param {
    lr_mult: 1
    decay_mult: 0
  }
  scale_param {
    filler {
      type: "constant"
      value: 1
    }
    bias_term: true
    bias_filler {
      type: "constant"
      value: 0
    }
  }
}
layer {
  name: "res2a_branch2a_relu"
  type: "ReLU"
  bottom: "res2a_branch2a"
  top: "res2a_branch2a"
}
layer {
  name: "res2a_branch2b"
  type: "Convolution"
  bottom: "res2a_branch2a"
  top: "res2a_branch2b"
  param {
    lr_mult: 1
    decay_mult: 1
  }
  convolution_param {
    num_output: 64
    bias_term: false
    pad: 1
    kernel_size: 3
    stride: 1
    weight_filler {
      type: "gaussian"
      std: 0.01
    }
  }
}
layer {
  name: "bn2a_branch2b"
  type: "BatchNorm"
  bottom: "res2a_branch2b"
  top: "res2a_branch2b"
  batch_norm_param {
    moving_average_fraction: 0.999
    eps: 0.001
  }
}
layer {
  name: "scale2a_branch2b"
  type: "Scale"
  bottom: "res2a_branch2b"
  top: "res2a_branch2b"
  param {
    lr_mult: 1
    decay_mult: 0
  }
  param {
    lr_mult: 1
    decay_mult: 0
  }
  scale_param {
    filler {
      type: "constant"
      value: 1
    }
    bias_term: true
    bias_filler {
      type: "constant"
      value: 0
    }
  }
}
layer {
  name: "res2a"
  type: "Eltwise"
  bottom: "res2a_branch1"
  bottom: "res2a_branch2b"
  top: "res2a"
}
layer {
  name: "res2a_relu"
  type: "ReLU"
  bottom: "res2a"
  top: "res2a"
}
layer {
  name: "res2b_branch2a"
  type: "Convolution"
  bottom: "res2a"
  top: "res2b_branch2a"
  param {
    lr_mult: 1
    decay_mult: 1
  }
  convolution_param {
    num_output: 64
    bias_term: false
    pad: 1
    kernel_size: 3
    stride: 1
    weight_filler {
      type: "gaussian"
      std: 0.01
    }
  }
}
layer {
  name: "bn2b_branch2a"
  type: "BatchNorm"
  bottom: "res2b_branch2a"
  top: "res2b_branch2a"
  batch_norm_param {
    moving_average_fraction: 0.999
    eps: 0.001
  }
}
layer {
  name: "scale2b_branch2a"
  type: "Scale"
  bottom: "res2b_branch2a"
  top: "res2b_branch2a"
  param {
    lr_mult: 1
    decay_mult: 0
  }
  param {
    lr_mult: 1
    decay_mult: 0
  }
  scale_param {
    filler {
      type: "constant"
…
I0831 09:31:55.042506 27242 net.cpp:395] conv9_1_scale -> conv9_1 (in-place)
I0831 09:31:55.042588 27242 layer_factory.hpp:77] Creating layer conv9_1_scale
I0831 09:31:55.042757 27242 net.cpp:150] Setting up conv9_1_scale
I0831 09:31:55.042773 27242 net.cpp:157] Top shape: 4 128 4 4 (8192)
I0831 09:31:55.042780 27242 net.cpp:165] Memory required for data: 1227980832
I0831 09:31:55.042793 27242 layer_factory.hpp:77] Creating layer conv9_1_relu
I0831 09:31:55.042804 27242 net.cpp:100] Creating Layer conv9_1_relu
I0831 09:31:55.042811 27242 net.cpp:434] conv9_1_relu <- conv9_1
I0831 09:31:55.042821 27242 net.cpp:395] conv9_1_relu -> conv9_1 (in-place)
I0831 09:31:55.042831 27242 net.cpp:150] Setting up conv9_1_relu
I0831 09:31:55.042841 27242 net.cpp:157] Top shape: 4 128 4 4 (8192)
I0831 09:31:55.042846 27242 net.cpp:165] Memory required for data: 1228013600
I0831 09:31:55.042852 27242 layer_factory.hpp:77] Creating layer conv9_2
I0831 09:31:55.042871 27242 net.cpp:100] Creating Layer conv9_2
I0831 09:31:55.042881 27242 net.cpp:434] conv9_2 <- conv9_1
I0831 09:31:55.042891 27242 net.cpp:408] conv9_2 -> conv9_2
I0831 09:31:55.048419 27242 net.cpp:150] Setting up conv9_2
I0831 09:31:55.048441 27242 net.cpp:157] Top shape: 4 256 2 2 (4096)
I0831 09:31:55.048447 27242 net.cpp:165] Memory required for data: 1228029984
I0831 09:31:55.048457 27242 layer_factory.hpp:77] Creating layer conv9_2_bn
I0831 09:31:55.048472 27242 net.cpp:100] Creating Layer conv9_2_bn
I0831 09:31:55.048482 27242 net.cpp:434] conv9_2_bn <- conv9_2
I0831 09:31:55.048492 27242 net.cpp:395] conv9_2_bn -> conv9_2 (in-place)
I0831 09:31:55.048796 27242 net.cpp:150] Setting up conv9_2_bn
I0831 09:31:55.048816 27242 net.cpp:157] Top shape: 4 256 2 2 (4096)
I0831 09:31:55.048826 27242 net.cpp:165] Memory required for data: 1228046368
I0831 09:31:55.048843 27242 layer_factory.hpp:77] Creating layer conv9_2_scale
I0831 09:31:55.048858 27242 net.cpp:100] Creating Layer conv9_2_scale
I0831 09:31:55.048869 27242 net.cpp:434] conv9_2_scale <- conv9_2
I0831 09:31:55.048882 27242 net.cpp:395] conv9_2_scale -> conv9_2 (in-place)
I0831 09:31:55.048957 27242 layer_factory.hpp:77] Creating layer conv9_2_scale
I0831 09:31:55.049118 27242 net.cpp:150] Setting up conv9_2_scale
I0831 09:31:55.049132 27242 net.cpp:157] Top shape: 4 256 2 2 (4096)
I0831 09:31:55.049141 27242 net.cpp:165] Memory required for data: 1228062752
I0831 09:31:55.049154 27242 layer_factory.hpp:77] Creating layer conv9_2_relu
I0831 09:31:55.049166 27242 net.cpp:100] Creating Layer conv9_2_relu
I0831 09:31:55.049175 27242 net.cpp:434] conv9_2_relu <- conv9_2
I0831 09:31:55.049186 27242 net.cpp:395] conv9_2_relu -> conv9_2 (in-place)
I0831 09:31:55.049198 27242 net.cpp:150] Setting up conv9_2_relu
I0831 09:31:55.049208 27242 net.cpp:157] Top shape: 4 256 2 2 (4096)
I0831 09:31:55.049214 27242 net.cpp:165] Memory required for data: 1228079136
I0831 09:31:55.049219 27242 layer_factory.hpp:77] Creating layer conv9_2_conv9_2_relu_0_split
I0831 09:31:55.049229 27242 net.cpp:100] Creating Layer conv9_2_conv9_2_relu_0_split
I0831 09:31:55.049235 27242 net.cpp:434] conv9_2_conv9_2_relu_0_split <- conv9_2
I0831 09:31:55.049247 27242 net.cpp:408] conv9_2_conv9_2_relu_0_split -> conv9_2_conv9_2_relu_0_split_0
I0831 09:31:55.049263 27242 net.cpp:408] conv9_2_conv9_2_relu_0_split -> conv9_2_conv9_2_relu_0_split_1
I0831 09:31:55.049276 27242 net.cpp:408] conv9_2_conv9_2_relu_0_split -> conv9_2_conv9_2_relu_0_split_2
I0831 09:31:55.049293 27242 net.cpp:408] conv9_2_conv9_2_relu_0_split -> conv9_2_conv9_2_relu_0_split_3
I0831 09:31:55.049381 27242 net.cpp:150] Setting up conv9_2_conv9_2_relu_0_split
I0831 09:31:55.049396 27242 net.cpp:157] Top shape: 4 256 2 2 (4096)
I0831 09:31:55.049407 27242 net.cpp:157] Top shape: 4 256 2 2 (4096)
I0831 09:31:55.049417 27242 net.cpp:157] Top shape: 4 256 2 2 (4096)
I0831 09:31:55.049443 27242 net.cpp:157] Top shape: 4 256 2 2 (4096)
I0831 09:31:55.049453 27242 net.cpp:165] Memory required for data: 1228144672
I0831 09:31:55.049459 27242 layer_factory.hpp:77] Creating layer pool6
I0831 09:31:55.049470 27242 net.cpp:100] Creating Layer pool6
I0831 09:31:55.049479 27242 net.cpp:434] pool6 <- conv9_2_conv9_2_relu_0_split_0
I0831 09:31:55.049490 27242 net.cpp:408] pool6 -> pool6
I0831 09:31:55.049538 27242 net.cpp:150] Setting up pool6
I0831 09:31:55.049553 27242 net.cpp:157] Top shape: 4 256 1 1 (1024)
I0831 09:31:55.049561 27242 net.cpp:165] Memory required for data: 1228148768
I0831 09:31:55.049566 27242 layer_factory.hpp:77] Creating layer pool6_pool6_0_split
I0831 09:31:55.049607 27242 net.cpp:100] Creating Layer pool6_pool6_0_split
I0831 09:31:55.049618 27242 net.cpp:434] pool6_pool6_0_split <- pool6
I0831 09:31:55.049628 27242 net.cpp:408] pool6_pool6_0_split -> pool6_pool6_0_split_0
I0831 09:31:55.049643 27242 net.cpp:408] pool6_pool6_0_split -> pool6_pool6_0_split_1
I0831 09:31:55.049656 27242 net.cpp:408] pool6_pool6_0_split -> pool6_pool6_0_split_2
I0831 09:31:55.049726 27242 net.cpp:150] Setting up pool6_pool6_0_split
I0831 09:31:55.049741 27242 net.cpp:157] Top shape: 4 256 1 1 (1024)
I0831 09:31:55.049749 27242 net.cpp:157] Top shape: 4 256 1 1 (1024)
I0831 09:31:55.049758 27242 net.cpp:157] Top shape: 4 256 1 1 (1024)
I0831 09:31:55.049765 27242 net.cpp:165] Memory required for data: 1228161056
I0831 09:31:55.049772 27242 layer_factory.hpp:77] Creating layer res4b_relu_mbox_loc
I0831 09:31:55.049801 27242 net.cpp:100] Creating Layer res4b_relu_mbox_loc
I0831 09:31:55.049811 27242 net.cpp:434] res4b_relu_mbox_loc <- res4b_res4b_relu_0_split_2
I0831 09:31:55.049825 27242 net.cpp:408] res4b_relu_mbox_loc -> res4b_relu_mbox_loc
I0831 09:31:55.051347 27242 net.cpp:150] Setting up res4b_relu_mbox_loc
I0831 09:31:55.051368 27242 net.cpp:157] Top shape: 4 16 32 32 (65536)
I0831 09:31:55.051375 27242 net.cpp:165] Memory required for data: 1228423200
I0831 09:31:55.051386 27242 layer_factory.hpp:77] Creating layer res4b_relu_mbox_loc_bn
I0831 09:31:55.051403 27242 net.cpp:100] Creating Layer res4b_relu_mbox_loc_bn
I0831 09:31:55.051411 27242 net.cpp:434] res4b_relu_mbox_loc_bn <- res4b_relu_mbox_loc
I0831 09:31:55.051424 27242 net.cpp:395] res4b_relu_mbox_loc_bn -> res4b_relu_mbox_loc (in-place)
I0831 09:31:55.051703 27242 net.cpp:150] Setting up res4b_relu_mbox_loc_bn
I0831 09:31:55.051719 27242 net.cpp:157] Top shape: 4 16 32 32 (65536)
I0831 09:31:55.051728 27242 net.cpp:165] Memory required for data: 1228685344
I0831 09:31:55.051744 27242 layer_factory.hpp:77] Creating layer res4b_relu_mbox_loc_scale
I0831 09:31:55.051757 27242 net.cpp:100] Creating Layer res4b_relu_mbox_loc_scale
I0831 09:31:55.051765 27242 net.cpp:434] res4b_relu_mbox_loc_scale <- res4b_relu_mbox_loc
I0831 09:31:55.051776 27242 net.cpp:395] res4b_relu_mbox_loc_scale -> res4b_relu_mbox_loc (in-place)
I0831 09:31:55.051852 27242 layer_factory.hpp:77] Creating layer res4b_relu_mbox_loc_scale
I0831 09:31:55.052029 27242 net.cpp:150] Setting up res4b_relu_mbox_loc_scale
I0831 09:31:55.052047 27242 net.cpp:157] Top shape: 4 16 32 32 (65536)
I0831 09:31:55.052053 27242 net.cpp:165] Memory required for data: 1228947488
I0831 09:31:55.052064 27242 layer_factory.hpp:77] Creating layer res4b_relu_mbox_loc_perm
I0831 09:31:55.052078 27242 net.cpp:100] Creating Layer res4b_relu_mbox_loc_perm
I0831 09:31:55.052086 27242 net.cpp:434] res4b_relu_mbox_loc_perm <- res4b_relu_mbox_loc
I0831 09:31:55.052099 27242 net.cpp:408] res4b_relu_mbox_loc_perm -> res4b_relu_mbox_loc_perm
I0831 09:31:55.052245 27242 net.cpp:150] Setting up res4b_relu_mbox_loc_perm
I0831 09:31:55.052263 27242 net.cpp:157] Top shape: 4 32 32 16 (65536)
I0831 09:31:55.052269 27242 net.cpp:165] Memory required for data: 1229209632
I0831 09:31:55.052276 27242 layer_factory.hpp:77] Creating layer res4b_relu_mbox_loc_flat
I0831 09:31:55.052289 27242 net.cpp:100] Creating Layer res4b_relu_mbox_loc_flat
I0831 09:31:55.052297 27242 net.cpp:434] res4b_relu_mbox_loc_flat <- res4b_relu_mbox_loc_perm
I0831 09:31:55.052330 27242 net.cpp:408] res4b_relu_mbox_loc_flat -> res4b_relu_mbox_loc_flat
I0831 09:31:55.052374 27242 net.cpp:150] Setting up res4b_relu_mbox_loc_flat
I0831 09:31:55.052388 27242 net.cpp:157] Top shape: 4 16384 (65536)
I0831 09:31:55.052393 27242 net.cpp:165] Memory required for data: 1229471776
I0831 09:31:55.052399 27242 layer_factory.hpp:77] Creating layer res4b_relu_mbox_conf
I0831 09:31:55.052418 27242 net.cpp:100] Creating Layer res4b_relu_mbox_conf
I0831 09:31:55.052428 27242 net.cpp:434] res4b_relu_mbox_conf <- res4b_res4b_relu_0_split_3
I0831 09:31:55.052443 27242 net.cpp:408] res4b_relu_mbox_conf -> res4b_relu_mbox_conf
I0831 09:31:55.053005 27242 net.cpp:150] Setting up res4b_relu_mbox_conf
I0831 09:31:55.053025 27242 net.cpp:157] Top shape: 4 8 32 32 (32768)
I0831 09:31:55.053030 27242 net.cpp:165] Memory required for data: 1229602848
I0831 09:31:55.053040 27242 layer_factory.hpp:77] Creating layer res4b_relu_mbox_conf_bn
I0831 09:31:55.053055 27242 net.cpp:100] Creating Layer res4b_relu_mbox_conf_bn
I0831 09:31:55.053064 27242 net.cpp:434] res4b_relu_mbox_conf_bn <- res4b_relu_mbox_conf
I0831 09:31:55.053074 27242 net.cpp:395] res4b_relu_mbox_conf_bn -> res4b_relu_mbox_conf (in-place)
I0831 09:31:55.053349 27242 net.cpp:150] Setting up res4b_relu_mbox_conf_bn
I0831 09:31:55.053365 27242 net.cpp:157] Top shape: 4 8 32 32 (32768)
I0831 09:31:55.053375 27242 net.cpp:165] Memory required for data: 1229733920
I0831 09:31:55.053390 27242 layer_factory.hpp:77] Creating layer res4b_relu_mbox_conf_scale
I0831 09:31:55.053406 27242 net.cpp:100] Creating Layer res4b_relu_mbox_conf_scale
I0831 09:31:55.053416 27242 net.cpp:434] res4b_relu_mbox_conf_scale <- res4b_relu_mbox_conf
I0831 09:31:55.053428 27242 net.cpp:395] res4b_relu_mbox_conf_scale -> res4b_relu_mbox_conf (in-place)
I0831 09:31:55.053499 27242 layer_factory.hpp:77] Creating layer res4b_relu_mbox_conf_scale
I0831 09:31:55.053673 27242 net.cpp:150] Setting up res4b_relu_mbox_conf_scale
I0831 09:31:55.053689 27242 net.cpp:157] Top shape: 4 8 32 32 (32768)
I0831 09:31:55.053696 27242 net.cpp:165] Memory required for data: 1229864992
I0831 09:31:55.053707 27242 layer_factory.hpp:77] Creating layer res4b_relu_mbox_conf_perm
I0831 09:31:55.053720 27242 net.cpp:100] Creating Layer res4b_relu_mbox_conf_perm
I0831 09:31:55.053728 27242 net.cpp:434] res4b_relu_mbox_conf_perm <- res4b_relu_mbox_conf
I0831 09:31:55.053741 27242 net.cpp:408] res4b_relu_mbox_conf_perm -> res4b_relu_mbox_conf_perm
I0831 09:31:55.053880 27242 net.cpp:150] Setting up res4b_relu_mbox_conf_perm
I0831 09:31:55.053895 27242 net.cpp:157] Top shape: 4 32 32 8 (32768)
I0831 09:31:55.053905 27242 net.cpp:165] Memory required for data: 1229996064
I0831 09:31:55.053912 27242 layer_factory.hpp:77] Creating layer res4b_relu_mbox_conf_flat
I0831 09:31:55.053922 27242 net.cpp:100] Creating Layer res4b_relu_mbox_conf_flat
I0831 09:31:55.053930 27242 net.cpp:434] res4b_relu_mbox_conf_flat <- res4b_relu_mbox_conf_perm
I0831 09:31:55.053943 27242 net.cpp:408] res4b_relu_mbox_conf_flat -> res4b_relu_mbox_conf_flat
I0831 09:31:55.053989 27242 net.cpp:150] Setting up res4b_relu_mbox_conf_flat
I0831 09:31:55.054003 27242 net.cpp:157] Top shape: 4 8192 (32768)
I0831 09:31:55.054013 27242 net.cpp:165] Memory required for data: 1230127136
I0831 09:31:55.054021 27242 layer_factory.hpp:77] Creating layer res4b_relu_mbox_priorbox
I0831 09:31:55.054034 27242 net.cpp:100] Creating Layer res4b_relu_mbox_priorbox
I0831 09:31:55.054042 27242 net.cpp:434] res4b_relu_mbox_priorbox <- res4b_res4b_relu_0_split_4
I0831 09:31:55.054052 27242 net.cpp:434] res4b_relu_mbox_priorbox <- data_data_0_split_1
I0831 09:31:55.054070 27242 net.cpp:408] res4b_relu_mbox_priorbox -> res4b_relu_mbox_priorbox
I0831 09:31:55.054123 27242 net.cpp:150] Setting up res4b_relu_mbox_priorbox
I0831 09:31:55.054138 27242 net.cpp:157] Top shape: 1 2 16384 (32768)
I0831 09:31:55.054145 27242 net.cpp:165] Memory required for data: 1230258208
I0831 09:31:55.054152 27242 layer_factory.hpp:77] Creating layer res5b_relu_mbox_loc
I0831 09:31:55.054184 27242 net.cpp:100] Creating Layer res5b_relu_mbox_loc
I0831 09:31:55.054195 27242 net.cpp:434] res5b_relu_mbox_loc <- res5b_res5b_relu_0_split_1
I0831 09:31:55.054209 27242 net.cpp:408] res5b_relu_mbox_loc -> res5b_relu_mbox_loc
I0831 09:31:55.056221 27242 net.cpp:150] Setting up res5b_relu_mbox_loc
I0831 09:31:55.056241 27242 net.cpp:157] Top shape: 4 24 16 16 (24576)
I0831 09:31:55.056247 27242 net.cpp:165] Memory required for data: 1230356512
I0831 09:31:55.056257 27242 layer_factory.hpp:77] Creating layer res5b_relu_mbox_loc_bn
I0831 09:31:55.056268 27242 net.cpp:100] Creating Layer res5b_relu_mbox_loc_bn
I0831 09:31:55.056277 27242 net.cpp:434] res5b_relu_mbox_loc_bn <- res5b_relu_mbox_loc
I0831 09:31:55.056288 27242 net.cpp:395] res5b_relu_mbox_loc_bn -> res5b_relu_mbox_loc (in-place)
I0831 09:31:55.056566 27242 net.cpp:150] Setting up res5b_relu_mbox_loc_bn
I0831 09:31:55.056582 27242 net.cpp:157] Top shape: 4 24 16 16 (24576)
I0831 09:31:55.056589 27242 net.cpp:165] Memory required for data: 1230454816
I0831 09:31:55.056603 27242 layer_factory.hpp:77] Creating layer res5b_relu_mbox_loc_scale
I0831 09:31:55.056623 27242 net.cpp:100] Creating Layer res5b_relu_mbox_loc_scale
I0831 09:31:55.056632 27242 net.cpp:434] res5b_relu_mbox_loc_scale <- res5b_relu_mbox_loc
I0831 09:31:55.056646 27242 net.cpp:395] res5b_relu_mbox_loc_scale -> res5b_relu_mbox_loc (in-place)
I0831 09:31:55.056715 27242 layer_factory.hpp:77] Creating layer res5b_relu_mbox_loc_scale
I0831 09:31:55.056887 27242 net.cpp:150] Setting up res5b_relu_mbox_loc_scale
I0831 09:31:55.056903 27242 net.cpp:157] Top shape: 4 24 16 16 (24576)
I0831 09:31:55.056910 27242 net.cpp:165] Memory required for data: 1230553120
I0831 09:31:55.056921 27242 layer_factory.hpp:77] Creating layer res5b_relu_mbox_loc_perm
I0831 09:31:55.056936 27242 net.cpp:100] Creating Layer res5b_relu_mbox_loc_perm
I0831 09:31:55.056946 27242 net.cpp:434] res5b_relu_mbox_loc_perm <- res5b_relu_mbox_loc
I0831 09:31:55.056960 27242 net.cpp:408] res5b_relu_mbox_loc_perm -> res5b_relu_mbox_loc_perm
I0831 09:31:55.057106 27242 net.cpp:150] Setting up res5b_relu_mbox_loc_perm
I0831 09:31:55.057121 27242 net.cpp:157] Top shape: 4 16 16 24 (24576)
I0831 09:31:55.057132 27242 net.cpp:165] Memory required for data: 1230651424
I0831 09:31:55.057138 27242 layer_factory.hpp:77] Creating layer res5b_relu_mbox_loc_flat
I0831 09:31:55.057148 27242 net.cpp:100] Creating Layer res5b_relu_mbox_loc_flat
I0831 09:31:55.057157 27242 net.cpp:434] res5b_relu_mbox_loc_flat <- res5b_relu_mbox_loc_perm
I0831 09:31:55.057169 27242 net.cpp:408] res5b_relu_mbox_loc_flat -> res5b_relu_mbox_loc_flat
I0831 09:31:55.057215 27242 net.cpp:150] Setting up res5b_relu_mbox_loc_flat
I0831 09:31:55.057230 27242 net.cpp:157] Top shape: 4 6144 (24576)
I0831 09:31:55.057235 27242 net.cpp:165] Memory required for data: 1230749728
I0831 09:31:55.057241 27242 layer_factory.hpp:77] Creating layer res5b_relu_mbox_conf
I0831 09:31:55.057258 27242 net.cpp:100] Creating Layer res5b_relu_mbox_conf
I0831 09:31:55.057266 27242 net.cpp:434] res5b_relu_mbox_conf <- res5b_res5b_relu_0_split_2
I0831 09:31:55.057281 27242 net.cpp:408] res5b_relu_mbox_conf -> res5b_relu_mbox_conf
I0831 09:31:55.058400 27242 net.cpp:150] Setting up res5b_relu_mbox_conf
I0831 09:31:55.058419 27242 net.cpp:157] Top shape: 4 12 16 16 (12288)
I0831 09:31:55.058429 27242 net.cpp:165] Memory required for data: 1230798880
I0831 09:31:55.058439 27242 layer_factory.hpp:77] Creating layer res5b_relu_mbox_conf_bn
I0831 09:31:55.058454 27242 net.cpp:100] Creating Layer res5b_relu_mbox_conf_bn
I0831 09:31:55.058463 27242 net.cpp:434] res5b_relu_mbox_conf_bn <- res5b_relu_mbox_conf
I0831 09:31:55.058473 27242 net.cpp:395] res5b_relu_mbox_conf_bn -> res5b_relu_mbox_conf (in-place)
I0831 09:31:55.058744 27242 net.cpp:150] Setting up res5b_relu_mbox_conf_bn
I0831 09:31:55.058768 27242 net.cpp:157] Top shape: 4 12 16 16 (12288)
I0831 09:31:55.058774 27242 net.cpp:165] Memory required for data: 1230848032
I0831 09:31:55.058804 27242 layer_factory.hpp:77] Creating layer res5b_relu_mbox_conf_scale
I0831 09:31:55.058818 27242 net.cpp:100] Creating Layer res5b_relu_mbox_conf_scale
I0831 09:31:55.058827 27242 net.cpp:434] res5b_relu_mbox_conf_scale <- res5b_relu_mbox_conf
I0831 09:31:55.058837 27242 net.cpp:395] res5b_relu_mbox_conf_scale -> res5b_relu_mbox_conf (in-place)
I0831 09:31:55.058907 27242 layer_factory.hpp:77] Creating layer res5b_relu_mbox_conf_scale
I0831 09:31:55.059077 27242 net.cpp:150] Setting up res5b_relu_mbox_conf_scale
I0831 09:31:55.059092 27242 net.cpp:157] Top shape: 4 12 16 16 (12288)
I0831 09:31:55.059098 27242 net.cpp:165] Memory required for data: 1230897184
I0831 09:31:55.059109 27242 layer_factory.hpp:77] Creating layer res5b_relu_mbox_conf_perm
I0831 09:31:55.059121 27242 net.cpp:100] Creating Layer res5b_relu_mbox_conf_perm
I0831 09:31:55.059130 27242 net.cpp:434] res5b_relu_mbox_conf_perm <- res5b_relu_mbox_conf
I0831 09:31:55.059144 27242 net.cpp:408] res5b_relu_mbox_conf_perm -> res5b_relu_mbox_conf_perm
I0831 09:31:55.059274 27242 net.cpp:150] Setting up res5b_relu_mbox_conf_perm
I0831 09:31:55.059289 27242 net.cpp:157] Top shape: 4 16 16 12 (12288)
I0831 09:31:55.059296 27242 net.cpp:165] Memory required for data: 1230946336
I0831 09:31:55.059303 27242 layer_factory.hpp:77] Creating layer res5b_relu_mbox_conf_flat
I0831 09:31:55.059317 27242 net.cpp:100] Creating Layer res5b_relu_mbox_conf_flat
I0831 09:31:55.059326 27242 net.cpp:434] res5b_relu_mbox_conf_flat <- res5b_relu_mbox_conf_perm
I0831 09:31:55.059339 27242 net.cpp:408] res5b_relu_mbox_conf_flat -> res5b_relu_mbox_conf_flat
I0831 09:31:55.059378 27242 net.cpp:150] Setting up res5b_relu_mbox_conf_flat
I0831 09:31:55.059391 27242 net.cpp:157] Top shape: 4 3072 (12288)
I0831 09:31:55.059397 27242 net.cpp:165] Memory required for data: 1230995488
I0831 09:31:55.059406 27242 layer_factory.hpp:77] Creating layer res5b_relu_mbox_priorbox
I0831 09:31:55.059433 27242 net.cpp:100] Creating Layer res5b_relu_mbox_priorbox
I0831 09:31:55.059443 27242 net.cpp:434] res5b_relu_mbox_priorbox <- res5b_res5b_relu_0_split_3
I0831 09:31:55.059453 27242 net.cpp:434] res5b_relu_mbox_priorbox <- data_data_0_split_2
I0831 09:31:55.059466 27242 net.cpp:408] res5b_relu_mbox_priorbox -> res5b_relu_mbox_priorbox
I0831 09:31:55.059514 27242 net.cpp:150] Setting up res5b_relu_mbox_priorbox
I0831 09:31:55.059530 27242 net.cpp:157] Top shape: 1 2 6144 (12288)
I0831 09:31:55.059537 27242 net.cpp:165] Memory required for data: 1231044640
I0831 09:31:55.059543 27242 layer_factory.hpp:77] Creating layer conv7_2_mbox_loc
I0831 09:31:55.059564 27242 net.cpp:100] Creating Layer conv7_2_mbox_loc
I0831 09:31:55.059576 27242 net.cpp:434] conv7_2_mbox_loc <- conv7_2_conv7_2_relu_0_split_1
I0831 09:31:55.059588 27242 net.cpp:408] conv7_2_mbox_loc -> conv7_2_mbox_loc
I0831 09:31:55.060709 27242 net.cpp:150] Setting up conv7_2_mbox_loc
I0831 09:31:55.060727 27242 net.cpp:157] Top shape: 4 24 8 8 (6144)
I0831 09:31:55.060734 27242 net.cpp:165] Memory required for data: 1231069216
I0831 09:31:55.060750 27242 layer_factory.hpp:77] Creating layer conv7_2_mbox_loc_bn
I0831 09:31:55.060761 27242 net.cpp:100] Creating Layer conv7_2_mbox_loc_bn
I0831 09:31:55.060770 27242 net.cpp:434] conv7_2_mbox_loc_bn <- conv7_2_mbox_loc
I0831 09:31:55.060786 27242 net.cpp:395] conv7_2_mbox_loc_bn -> conv7_2_mbox_loc (in-place)
I0831 09:31:55.061070 27242 net.cpp:150] Setting up conv7_2_mbox_loc_bn
I0831 09:31:55.061086 27242 net.cpp:157] Top shape: 4 24 8 8 (6144)
I0831 09:31:55.061095 27242 net.cpp:165] Memory required for data: 1231093792
I0831 09:31:55.061110 27242 layer_factory.hpp:77] Creating layer conv7_2_mbox_loc_scale
I0831 09:31:55.061127 27242 net.cpp:100] Creating Layer conv7_2_mbox_loc_scale
I0831 09:31:55.061138 27242 net.cpp:434] conv7_2_mbox_loc_scale <- conv7_2_mbox_loc
I0831 09:31:55.061149 27242 net.cpp:395] conv7_2_mbox_loc_scale -> conv7_2_mbox_loc (in-place)
I0831 09:31:55.061219 27242 layer_factory.hpp:77] Creating layer conv7_2_mbox_loc_scale
I0831 09:31:55.061400 27242 net.cpp:150] Setting up conv7_2_mbox_loc_scale
I0831 09:31:55.061430 27242 net.cpp:157] Top shape: 4 24 8 8 (6144)
I0831 09:31:55.061439 27242 net.cpp:165] Memory required for data: 1231118368
I0831 09:31:55.061450 27242 layer_factory.hpp:77] Creating layer conv7_2_mbox_loc_perm
I0831 09:31:55.061462 27242 net.cpp:100] Creating Layer conv7_2_mbox_loc_perm
I0831 09:31:55.061470 27242 net.cpp:434] conv7_2_mbox_loc_perm <- conv7_2_mbox_loc
I0831 09:31:55.061484 27242 net.cpp:408] conv7_2_mbox_loc_perm -> conv7_2_mbox_loc_perm
I0831 09:31:55.061626 27242 net.cpp:150] Setting up conv7_2_mbox_loc_perm
I0831 09:31:55.061641 27242 net.cpp:157] Top shape: 4 8 8 24 (6144)
I0831 09:31:55.061648 27242 net.cpp:165] Memory required for data: 1231142944
I0831 09:31:55.061655 27242 layer_factory.hpp:77] Creating layer conv7_2_mbox_loc_flat
I0831 09:31:55.061666 27242 net.cpp:100] Creating Layer conv7_2_mbox_loc_flat
I0831 09:31:55.061676 27242 net.cpp:434] conv7_2_mbox_loc_flat <- conv7_2_mbox_loc_perm
I0831 09:31:55.061688 27242 net.cpp:408] conv7_2_mbox_loc_flat -> conv7_2_mbox_loc_flat
I0831 09:31:55.061730 27242 net.cpp:150] Setting up conv7_2_mbox_loc_flat
I0831 09:31:55.061743 27242 net.cpp:157] Top shape: 4 1536 (6144)
I0831 09:31:55.061749 27242 net.cpp:165] Memory required for data: 1231167520
I0831 09:31:55.061755 27242 layer_factory.hpp:77] Creating layer conv7_2_mbox_conf
I0831 09:31:55.061775 27242 net.cpp:100] Creating Layer conv7_2_mbox_conf
I0831 09:31:55.061784 27242 net.cpp:434] conv7_2_mbox_conf <- conv7_2_conv7_2_relu_0_split_2
I0831 09:31:55.061799 27242 net.cpp:408] conv7_2_mbox_conf -> conv7_2_mbox_conf
I0831 09:31:55.062492 27242 net.cpp:150] Setting up conv7_2_mbox_conf
I0831 09:31:55.062510 27242 net.cpp:157] Top shape: 4 12 8 8 (3072)
I0831 09:31:55.062515 27242 net.cpp:165] Memory required for data: 1231179808
I0831 09:31:55.062527 27242 layer_factory.hpp:77] Creating layer conv7_2_mbox_conf_bn
I0831 09:31:55.062542 27242 net.cpp:100] Creating Layer conv7_2_mbox_conf_bn
I0831 09:31:55.062553 27242 net.cpp:434] conv7_2_mbox_conf_bn <- conv7_2_mbox_conf
I0831 09:31:55.062563 27242 net.cpp:395] conv7_2_mbox_conf_bn -> conv7_2_mbox_conf (in-place)
I0831 09:31:55.062834 27242 net.cpp:150] Setting up conv7_2_mbox_conf_bn
I0831 09:31:55.062849 27242 net.cpp:157] Top shape: 4 12 8 8 (3072)
I0831 09:31:55.062855 27242 net.cpp:165] Memory required for data: 1231192096
I0831 09:31:55.062866 27242 layer_factory.hpp:77] Creating layer conv7_2_mbox_conf_scale
I0831 09:31:55.062882 27242 net.cpp:100] Creating Layer conv7_2_mbox_conf_scale
I0831 09:31:55.062891 27242 net.cpp:434] conv7_2_mbox_conf_scale <- conv7_2_mbox_conf
I0831 09:31:55.062901 27242 net.cpp:395] conv7_2_mbox_conf_scale -> conv7_2_mbox_conf (in-place)
I0831 09:31:55.062969 27242 layer_factory.hpp:77] Creating layer conv7_2_mbox_conf_scale
I0831 09:31:55.063148 27242 net.cpp:150] Setting up conv7_2_mbox_conf_scale
I0831 09:31:55.063163 27242 net.cpp:157] Top shape: 4 12 8 8 (3072)
I0831 09:31:55.063169 27242 net.cpp:165] Memory required for data: 1231204384
I0831 09:31:55.063179 27242 layer_factory.hpp:77] Creating layer conv7_2_mbox_conf_perm
I0831 09:31:55.063189 27242 net.cpp:100] Creating Layer conv7_2_mbox_conf_perm
I0831 09:31:55.063199 27242 net.cpp:434] conv7_2_mbox_conf_perm <- conv7_2_mbox_conf
I0831 09:31:55.063211 27242 net.cpp:408] conv7_2_mbox_conf_perm -> conv7_2_mbox_conf_perm
I0831 09:31:55.063347 27242 net.cpp:150] Setting up conv7_2_mbox_conf_perm
I0831 09:31:55.063362 27242 net.cpp:157] Top shape: 4 8 8 12 (3072)
I0831 09:31:55.063367 27242 net.cpp:165] Memory required for data: 1231216672
I0831 09:31:55.063374 27242 layer_factory.hpp:77] Creating layer conv7_2_mbox_conf_flat
I0831 09:31:55.063390 27242 net.cpp:100] Creating Layer conv7_2_mbox_conf_flat
I0831 09:31:55.063400 27242 net.cpp:434] conv7_2_mbox_conf_flat <- conv7_2_mbox_conf_perm
I0831 09:31:55.063411 27242 net.cpp:408] conv7_2_mbox_conf_flat -> conv7_2_mbox_conf_flat
I0831 09:31:55.063449 27242 net.cpp:150] Setting up conv7_2_mbox_conf_flat
I0831 09:31:55.063462 27242 net.cpp:157] Top shape: 4 768 (3072)
I0831 09:31:55.063483 27242 net.cpp:165] Memory required for data: 1231228960
I0831 09:31:55.063491 27242 layer_factory.hpp:77] Creating layer conv7_2_mbox_priorbox
I0831 09:31:55.063510 27242 net.cpp:100] Creating Layer conv7_2_mbox_priorbox
I0831 09:31:55.063520 27242 net.cpp:434] conv7_2_mbox_priorbox <- conv7_2_conv7_2_relu_0_split_3
I0831 09:31:55.063531 27242 net.cpp:434] conv7_2_mbox_priorbox <- data_data_0_split_3
I0831 09:31:55.063546 27242 net.cpp:408] conv7_2_mbox_priorbox -> conv7_2_mbox_priorbox
I0831 09:31:55.063598 27242 net.cpp:150] Setting up conv7_2_mbox_priorbox
I0831 09:31:55.063612 27242 net.cpp:157] Top shape: 1 2 1536 (3072)
I0831 09:31:55.063618 27242 net.cpp:165] Memory required for data: 1231241248
I0831 09:31:55.063624 27242 layer_factory.hpp:77] Creating layer conv8_2_mbox_loc
I0831 09:31:55.063640 27242 net.cpp:100] Creating Layer conv8_2_mbox_loc
I0831 09:31:55.063649 27242 net.cpp:434] conv8_2_mbox_loc <- conv8_2_conv8_2_relu_0_split_1
I0831 09:31:55.063661 27242 net.cpp:408] conv8_2_mbox_loc -> conv8_2_mbox_loc
I0831 09:31:55.064775 27242 net.cpp:150] Setting up conv8_2_mbox_loc
I0831 09:31:55.064793 27242 net.cpp:157] Top shape: 4 24 4 4 (1536)
I0831 09:31:55.064800 27242 net.cpp:165] Memory required for data: 1231247392
I0831 09:31:55.064810 27242 layer_factory.hpp:77] Creating layer conv8_2_mbox_loc_bn
I0831 09:31:55.064822 27242 net.cpp:100] Creating Layer conv8_2_mbox_loc_bn
I0831 09:31:55.064831 27242 net.cpp:434] conv8_2_mbox_loc_bn <- conv8_2_mbox_loc
I0831 09:31:55.064841 27242 net.cpp:395] conv8_2_mbox_loc_bn -> conv8_2_mbox_loc (in-place)
I0831 09:31:55.065111 27242 net.cpp:150] Setting up conv8_2_mbox_loc_bn
I0831 09:31:55.065125 27242 net.cpp:157] Top shape: 4 24 4 4 (1536)
I0831 09:31:55.065131 27242 net.cpp:165] Memory required for data: 1231253536
I0831 09:31:55.065145 27242 layer_factory.hpp:77] Creating layer conv8_2_mbox_loc_scale
I0831 09:31:55.065160 27242 net.cpp:100] Creating Layer conv8_2_mbox_loc_scale
I0831 09:31:55.065170 27242 net.cpp:434] conv8_2_mbox_loc_scale <- conv8_2_mbox_loc
I0831 09:31:55.065181 27242 net.cpp:395] conv8_2_mbox_loc_scale -> conv8_2_mbox_loc (in-place)
I0831 09:31:55.065246 27242 layer_factory.hpp:77] Creating layer conv8_2_mbox_loc_scale
I0831 09:31:55.065428 27242 net.cpp:150] Setting up conv8_2_mbox_loc_scale
I0831 09:31:55.065443 27242 net.cpp:157] Top shape: 4 24 4 4 (1536)
I0831 09:31:55.065448 27242 net.cpp:165] Memory required for data: 1231259680
I0831 09:31:55.065459 27242 layer_factory.hpp:77] Creating layer conv8_2_mbox_loc_perm
I0831 09:31:55.065469 27242 net.cpp:100] Creating Layer conv8_2_mbox_loc_perm
I0831 09:31:55.065479 27242 net.cpp:434] conv8_2_mbox_loc_perm <- conv8_2_mbox_loc
I0831 09:31:55.065492 27242 net.cpp:408] conv8_2_mbox_loc_perm -> conv8_2_mbox_loc_perm
I0831 09:31:55.065634 27242 net.cpp:150] Setting up conv8_2_mbox_loc_perm
I0831 09:31:55.065649 27242 net.cpp:157] Top shape: 4 4 4 24 (1536)
I0831 09:31:55.065654 27242 net.cpp:165] Memory required for data: 1231265824
I0831 09:31:55.065659 27242 layer_factory.hpp:77] Creating layer conv8_2_mbox_loc_flat
I0831 09:31:55.065670 27242 net.cpp:100] Creating Layer conv8_2_mbox_loc_flat
I0831 09:31:55.065676 27242 net.cpp:434] conv8_2_mbox_loc_flat <- conv8_2_mbox_loc_perm
I0831 09:31:55.065688 27242 net.cpp:408] conv8_2_mbox_loc_flat -> conv8_2_mbox_loc_flat
I0831 09:31:55.065732 27242 net.cpp:150] Setting up conv8_2_mbox_loc_flat
I0831 09:31:55.065747 27242 net.cpp:157] Top shape: 4 384 (1536)
I0831 09:31:55.065752 27242 net.cpp:165] Memory required for data: 1231271968
I0831 09:31:55.065757 27242 layer_factory.hpp:77] Creating layer conv8_2_mbox_conf
I0831 09:31:55.065773 27242 net.cpp:100] Creating Layer conv8_2_mbox_conf
I0831 09:31:55.065783 27242 net.cpp:434] conv8_2_mbox_conf <- conv8_2_conv8_2_relu_0_split_2
I0831 09:31:55.065795 27242 net.cpp:408] conv8_2_mbox_conf -> conv8_2_mbox_conf
I0831 09:31:55.066509 27242 net.cpp:150] Setting up conv8_2_mbox_conf
I0831 09:31:55.066526 27242 net.cpp:157] Top shape: 4 12 4 4 (768)
I0831 09:31:55.066550 27242 net.cpp:165] Memory required for data: 1231275040
I0831 09:31:55.066560 27242 layer_factory.hpp:77] Creating layer conv8_2_mbox_conf_bn
I0831 09:31:55.066573 27242 net.cpp:100] Creating Layer conv8_2_mbox_conf_bn
I0831 09:31:55.066581 27242 net.cpp:434] conv8_2_mbox_conf_bn <- conv8_2_mbox_conf
I0831 09:31:55.066592 27242 net.cpp:395] conv8_2_mbox_conf_bn -> conv8_2_mbox_conf (in-place)
I0831 09:31:55.066865 27242 net.cpp:150] Setting up conv8_2_mbox_conf_bn
I0831 09:31:55.066880 27242 net.cpp:157] Top shape: 4 12 4 4 (768)
I0831 09:31:55.066889 27242 net.cpp:165] Memory required for data: 1231278112
I0831 09:31:55.066902 27242 layer_factory.hpp:77] Creating layer conv8_2_mbox_conf_scale
I0831 09:31:55.066916 27242 net.cpp:100] Creating Layer conv8_2_mbox_conf_scale
I0831 09:31:55.066923 27242 net.cpp:434] conv8_2_mbox_conf_scale <- conv8_2_mbox_conf
I0831 09:31:55.066934 27242 net.cpp:395] conv8_2_mbox_conf_scale -> conv8_2_mbox_conf (in-place)
I0831 09:31:55.067000 27242 layer_factory.hpp:77] Creating layer conv8_2_mbox_conf_scale
I0831 09:31:55.067174 27242 net.cpp:150] Setting up conv8_2_mbox_conf_scale
I0831 09:31:55.067189 27242 net.cpp:157] Top shape: 4 12 4 4 (768)
I0831 09:31:55.067195 27242 net.cpp:165] Memory required for data: 1231281184
I0831 09:31:55.067205 27242 layer_factory.hpp:77] Creating layer conv8_2_mbox_conf_perm
I0831 09:31:55.067217 27242 net.cpp:100] Creating Layer conv8_2_mbox_conf_perm
I0831 09:31:55.067226 27242 net.cpp:434] conv8_2_mbox_conf_perm <- conv8_2_mbox_conf
I0831 09:31:55.067239 27242 net.cpp:408] conv8_2_mbox_conf_perm -> conv8_2_mbox_conf_perm
I0831 09:31:55.067378 27242 net.cpp:150] Setting up conv8_2_mbox_conf_perm
I0831 09:31:55.067392 27242 net.cpp:157] Top shape: 4 4 4 12 (768)
I0831 09:31:55.067399 27242 net.cpp:165] Memory required for data: 1231284256
I0831 09:31:55.067405 27242 layer_factory.hpp:77] Creating layer conv8_2_mbox_conf_flat
I0831 09:31:55.067414 27242 net.cpp:100] Creating Layer conv8_2_mbox_conf_flat
I0831 09:31:55.067423 27242 net.cpp:434] conv8_2_mbox_conf_flat <- conv8_2_mbox_conf_perm
I0831 09:31:55.067436 27242 net.cpp:408] conv8_2_mbox_conf_flat -> conv8_2_mbox_conf_flat
I0831 09:31:55.067478 27242 net.cpp:150] Setting up conv8_2_mbox_conf_flat
I0831 09:31:55.067492 27242 net.cpp:157] Top shape: 4 192 (768)
I0831 09:31:55.067498 27242 net.cpp:165] Memory required for data: 1231287328
I0831 09:31:55.067504 27242 layer_factory.hpp:77] Creating layer conv8_2_mbox_priorbox
I0831 09:31:55.067517 27242 net.cpp:100] Creating Layer conv8_2_mbox_priorbox
I0831 09:31:55.067525 27242 net.cpp:434] conv8_2_mbox_priorbox <- conv8_2_conv8_2_relu_0_split_3
I0831 09:31:55.067536 27242 net.cpp:434] conv8_2_mbox_priorbox <- data_data_0_split_4
I0831 09:31:55.067550 27242 net.cpp:408] conv8_2_mbox_priorbox -> conv8_2_mbox_priorbox
I0831 09:31:55.067597 27242 net.cpp:150] Setting up conv8_2_mbox_priorbox
I0831 09:31:55.067611 27242 net.cpp:157] Top shape: 1 2 384 (768)
I0831 09:31:55.067617 27242 net.cpp:165] Memory required for data: 1231290400
I0831 09:31:55.067623 27242 layer_factory.hpp:77] Creating layer conv9_2_mbox_loc
I0831 09:31:55.067641 27242 net.cpp:100] Creating Layer conv9_2_mbox_loc
I0831 09:31:55.067651 27242 net.cpp:434] conv9_2_mbox_loc <- conv9_2_conv9_2_relu_0_split_1
I0831 09:31:55.067664 27242 net.cpp:408] conv9_2_mbox_loc -> conv9_2_mbox_loc
I0831 09:31:55.069538 27242 net.cpp:150] Setting up conv9_2_mbox_loc
I0831 09:31:55.069558 27242 net.cpp:157] Top shape: 4 24 2 2 (384)
I0831 09:31:55.069564 27242 net.cpp:165] Memory required for data: 1231291936
I0831 09:31:55.069576 27242 layer_factory.hpp:77] Creating layer conv9_2_mbox_loc_bn
I0831 09:31:55.069589 27242 net.cpp:100] Creating Layer conv9_2_mbox_loc_bn
I0831 09:31:55.069598 27242 net.cpp:434] conv9_2_mbox_loc_bn <- conv9_2_mbox_loc
I0831 09:31:55.069614 27242 net.cpp:395] conv9_2_mbox_loc_bn -> conv9_2_mbox_loc (in-place)
I0831 09:31:55.069900 27242 net.cpp:150] Setting up conv9_2_mbox_loc_bn
I0831 09:31:55.069916 27242 net.cpp:157] Top shape: 4 24 2 2 (384)
I0831 09:31:55.069936 27242 net.cpp:165] Memory required for data: 1231293472
I0831 09:31:55.069952 27242 layer_factory.hpp:77] Creating layer conv9_2_mbox_loc_scale
I0831 09:31:55.069969 27242 net.cpp:100] Creating Layer conv9_2_mbox_loc_scale
I0831 09:31:55.069978 27242 net.cpp:434] conv9_2_mbox_loc_scale <- conv9_2_mbox_loc
I0831 09:31:55.069989 27242 net.cpp:395] conv9_2_mbox_loc_scale -> conv9_2_mbox_loc (in-place)
I0831 09:31:55.070060 27242 layer_factory.hpp:77] Creating layer conv9_2_mbox_loc_scale
I0831 09:31:55.070235 27242 net.cpp:150] Setting up conv9_2_mbox_loc_scale
I0831 09:31:55.070252 27242 net.cpp:157] Top shape: 4 24 2 2 (384)
I0831 09:31:55.070258 27242 net.cpp:165] Memory required for data: 1231295008
I0831 09:31:55.070271 27242 layer_factory.hpp:77] Creating layer conv9_2_mbox_loc_perm
I0831 09:31:55.070283 27242 net.cpp:100] Creating Layer conv9_2_mbox_loc_perm
I0831 09:31:55.070291 27242 net.cpp:434] conv9_2_mbox_loc_perm <- conv9_2_mbox_loc
I0831 09:31:55.070304 27242 net.cpp:408] conv9_2_mbox_loc_perm -> conv9_2_mbox_loc_perm
I0831 09:31:55.070442 27242 net.cpp:150] Setting up conv9_2_mbox_loc_perm
I0831 09:31:55.070457 27242 net.cpp:157] Top shape: 4 2 2 24 (384)
I0831 09:31:55.070463 27242 net.cpp:165] Memory required for data: 1231296544
I0831 09:31:55.070471 27242 layer_factory.hpp:77] Creating layer conv9_2_mbox_loc_flat
I0831 09:31:55.070484 27242 net.cpp:100] Creating Layer conv9_2_mbox_loc_flat
I0831 09:31:55.070493 27242 net.cpp:434] conv9_2_mbox_loc_flat <- conv9_2_mbox_loc_perm
I0831 09:31:55.070503 27242 net.cpp:408] conv9_2_mbox_loc_flat -> conv9_2_mbox_loc_flat
I0831 09:31:55.070547 27242 net.cpp:150] Setting up conv9_2_mbox_loc_flat
I0831 09:31:55.070560 27242 net.cpp:157] Top shape: 4 96 (384)
I0831 09:31:55.070566 27242 net.cpp:165] Memory required for data: 1231298080
I0831 09:31:55.070574 27242 layer_factory.hpp:77] Creating layer conv9_2_mbox_conf
I0831 09:31:55.070593 27242 net.cpp:100] Creating Layer conv9_2_mbox_conf
I0831 09:31:55.070602 27242 net.cpp:434] conv9_2_mbox_conf <- conv9_2_conv9_2_relu_0_split_2
I0831 09:31:55.070617 27242 net.cpp:408] conv9_2_mbox_conf -> conv9_2_mbox_conf
I0831 09:31:55.071321 27242 net.cpp:150] Setting up conv9_2_mbox_conf
I0831 09:31:55.071337 27242 net.cpp:157] Top shape: 4 12 2 2 (192)
I0831 09:31:55.071344 27242 net.cpp:165] Memory required for data: 1231298848
I0831 09:31:55.071354 27242 layer_factory.hpp:77] Creating layer conv9_2_mbox_conf_bn
I0831 09:31:55.071365 27242 net.cpp:100] Creating Layer conv9_2_mbox_conf_bn
I0831 09:31:55.071374 27242 net.cpp:434] conv9_2_mbox_conf_bn <- conv9_2_mbox_conf
I0831 09:31:55.071389 27242 net.cpp:395] conv9_2_mbox_conf_bn -> conv9_2_mbox_conf (in-place)
I0831 09:31:55.071658 27242 net.cpp:150] Setting up conv9_2_mbox_conf_bn
I0831 09:31:55.071673 27242 net.cpp:157] Top shape: 4 12 2 2 (192)
I0831 09:31:55.071679 27242 net.cpp:165] Memory required for data: 1231299616
I0831 09:31:55.071692 27242 layer_factory.hpp:77] Creating layer conv9_2_mbox_conf_scale
I0831 09:31:55.071708 27242 net.cpp:100] Creating Layer conv9_2_mbox_conf_scale
I0831 09:31:55.071717 27242 net.cpp:434] conv9_2_mbox_conf_scale <- conv9_2_mbox_conf
I0831 09:31:55.071728 27242 net.cpp:395] conv9_2_mbox_conf_scale -> conv9_2_mbox_conf (in-place)
I0831 09:31:55.071794 27242 layer_factory.hpp:77] Creating layer conv9_2_mbox_conf_scale
I0831 09:31:55.071966 27242 net.cpp:150] Setting up conv9_2_mbox_conf_scale
I0831 09:31:55.071985 27242 net.cpp:157] Top shape: 4 12 2 2 (192)
I0831 09:31:55.071991 27242 net.cpp:165] Memory required for data: 1231300384
I0831 09:31:55.072002 27242 layer_factory.hpp:77] Creating layer conv9_2_mbox_conf_perm
I0831 09:31:55.072016 27242 net.cpp:100] Creating Layer conv9_2_mbox_conf_perm
I0831 09:31:55.072023 27242 net.cpp:434] conv9_2_mbox_conf_perm <- conv9_2_mbox_conf
I0831 09:31:55.072033 27242 net.cpp:408] conv9_2_mbox_conf_perm -> conv9_2_mbox_conf_perm
I0831 09:31:55.072175 27242 net.cpp:150] Setting up conv9_2_mbox_conf_perm
I0831 09:31:55.072190 27242 net.cpp:157] Top shape: 4 2 2 12 (192)
I0831 09:31:55.072196 27242 net.cpp:165] Memory required for data: 1231301152
I0831 09:31:55.072217 27242 layer_factory.hpp:77] Creating layer conv9_2_mbox_conf_flat
I0831 09:31:55.072232 27242 net.cpp:100] Creating Layer conv9_2_mbox_conf_flat
I0831 09:31:55.072242 27242 net.cpp:434] conv9_2_mbox_conf_flat <- conv9_2_mbox_conf_perm
I0831 09:31:55.072254 27242 net.cpp:408] conv9_2_mbox_conf_flat -> conv9_2_mbox_conf_flat
I0831 09:31:55.072299 27242 net.cpp:150] Setting up conv9_2_mbox_conf_flat
I0831 09:31:55.072314 27242 net.cpp:157] Top shape: 4 48 (192)
I0831 09:31:55.072321 27242 net.cpp:165] Memory required for data: 1231301920
I0831 09:31:55.072327 27242 layer_factory.hpp:77] Creating layer conv9_2_mbox_priorbox
I0831 09:31:55.072343 27242 net.cpp:100] Creating Layer conv9_2_mbox_priorbox
I0831 09:31:55.072352 27242 net.cpp:434] conv9_2_mbox_priorbox <- conv9_2_conv9_2_relu_0_split_3
I0831 09:31:55.072362 27242 net.cpp:434] conv9_2_mbox_priorbox <- data_data_0_split_5
I0831 09:31:55.072377 27242 net.cpp:408] conv9_2_mbox_priorbox -> conv9_2_mbox_priorbox
I0831 09:31:55.072423 27242 net.cpp:150] Setting up conv9_2_mbox_priorbox
I0831 09:31:55.072437 27242 net.cpp:157] Top shape: 1 2 96 (192)
I0831 09:31:55.072443 27242 net.cpp:165] Memory required for data: 1231302688
I0831 09:31:55.072449 27242 layer_factory.hpp:77] Creating layer pool6_mbox_loc
I0831 09:31:55.072468 27242 net.cpp:100] Creating Layer pool6_mbox_loc
I0831 09:31:55.072476 27242 net.cpp:434] pool6_mbox_loc <- pool6_pool6_0_split_0
I0831 09:31:55.072492 27242 net.cpp:408] pool6_mbox_loc -> pool6_mbox_loc
I0831 09:31:55.073624 27242 net.cpp:150] Setting up pool6_mbox_loc
I0831 09:31:55.073642 27242 net.cpp:157] Top shape: 4 24 1 1 (96)
I0831 09:31:55.073648 27242 net.cpp:165] Memory required for data: 1231303072
I0831 09:31:55.073657 27242 layer_factory.hpp:77] Creating layer pool6_mbox_loc_bn
I0831 09:31:55.073669 27242 net.cpp:100] Creating Layer pool6_mbox_loc_bn
I0831 09:31:55.073678 27242 net.cpp:434] pool6_mbox_loc_bn <- pool6_mbox_loc
I0831 09:31:55.073690 27242 net.cpp:395] pool6_mbox_loc_bn -> pool6_mbox_loc (in-place)
I0831 09:31:55.073966 27242 net.cpp:150] Setting up pool6_mbox_loc_bn
I0831 09:31:55.073982 27242 net.cpp:157] Top shape: 4 24 1 1 (96)
I0831 09:31:55.073988 27242 net.cpp:165] Memory required for data: 1231303456
I0831 09:31:55.074002 27242 layer_factory.hpp:77] Creating layer pool6_mbox_loc_scale
I0831 09:31:55.074017 27242 net.cpp:100] Creating Layer pool6_mbox_loc_scale
I0831 09:31:55.074025 27242 net.cpp:434] pool6_mbox_loc_scale <- pool6_mbox_loc
I0831 09:31:55.074035 27242 net.cpp:395] pool6_mbox_loc_scale -> pool6_mbox_loc (in-place)
I0831 09:31:55.074102 27242 layer_factory.hpp:77] Creating layer pool6_mbox_loc_scale
I0831 09:31:55.074276 27242 net.cpp:150] Setting up pool6_mbox_loc_scale
I0831 09:31:55.074291 27242 net.cpp:157] Top shape: 4 24 1 1 (96)
I0831 09:31:55.074298 27242 net.cpp:165] Memory required for data: 1231303840
I0831 09:31:55.074309 27242 layer_factory.hpp:77] Creating layer pool6_mbox_loc_perm
I0831 09:31:55.074324 27242 net.cpp:100] Creating Layer pool6_mbox_loc_perm
I0831 09:31:55.074332 27242 net.cpp:434] pool6_mbox_loc_perm <- pool6_mbox_loc
I0831 09:31:55.074342 27242 net.cpp:408] pool6_mbox_loc_perm -> pool6_mbox_loc_perm
I0831 09:31:55.074483 27242 net.cpp:150] Setting up pool6_mbox_loc_perm
I0831 09:31:55.074498 27242 net.cpp:157] Top shape: 4 1 1 24 (96)
I0831 09:31:55.074506 27242 net.cpp:165] Memory required for data: 1231304224
I0831 09:31:55.074512 27242 layer_factory.hpp:77] Creating layer pool6_mbox_loc_flat
I0831 09:31:55.074524 27242 net.cpp:100] Creating Layer pool6_mbox_loc_flat
I0831 09:31:55.074533 27242 net.cpp:434] pool6_mbox_loc_flat <- pool6_mbox_loc_perm
I0831 09:31:55.074543 27242 net.cpp:408] pool6_mbox_loc_flat -> pool6_mbox_loc_flat
I0831 09:31:55.074587 27242 net.cpp:150] Setting up pool6_mbox_loc_flat
I0831 09:31:55.074600 27242 net.cpp:157] Top shape: 4 24 (96)
I0831 09:31:55.074607 27242 net.cpp:165] Memory required for data: 1231304608
I0831 09:31:55.074614 27242 layer_factory.hpp:77] Creating layer pool6_mbox_conf
I0831 09:31:55.074646 27242 net.cpp:100] Creating Layer pool6_mbox_conf
I0831 09:31:55.074656 27242 net.cpp:434] pool6_mbox_conf <- pool6_pool6_0_split_1
I0831 09:31:55.074671 27242 net.cpp:408] pool6_mbox_conf -> pool6_mbox_conf
I0831 09:31:55.075366 27242 net.cpp:150] Setting up pool6_mbox_conf
I0831 09:31:55.075383 27242 net.cpp:157] Top shape: 4 12 1 1 (48)
I0831 09:31:55.075390 27242 net.cpp:165] Memory required for data: 1231304800
I0831 09:31:55.075399 27242 layer_factory.hpp:77] Creating layer pool6_mbox_conf_bn
I0831 09:31:55.075412 27242 net.cpp:100] Creating Layer pool6_mbox_conf_bn
I0831 09:31:55.075420 27242 net.cpp:434] pool6_mbox_conf_bn <- pool6_mbox_conf
I0831 09:31:55.075433 27242 net.cpp:395] pool6_mbox_conf_bn -> pool6_mbox_conf (in-place)
I0831 09:31:55.075703 27242 net.cpp:150] Setting up pool6_mbox_conf_bn
I0831 09:31:55.075717 27242 net.cpp:157] Top shape: 4 12 1 1 (48)
I0831 09:31:55.075724 27242 net.cpp:165] Memory required for data: 1231304992
I0831 09:31:55.075737 27242 layer_factory.hpp:77] Creating layer pool6_mbox_conf_scale
I0831 09:31:55.075753 27242 net.cpp:100] Creating Layer pool6_mbox_conf_scale
I0831 09:31:55.075762 27242 net.cpp:434] pool6_mbox_conf_scale <- pool6_mbox_conf
I0831 09:31:55.075773 27242 net.cpp:395] pool6_mbox_conf_scale -> pool6_mbox_conf (in-place)
I0831 09:31:55.075839 27242 layer_factory.hpp:77] Creating layer pool6_mbox_conf_scale
I0831 09:31:55.076016 27242 net.cpp:150] Setting up pool6_mbox_conf_scale
I0831 09:31:55.076031 27242 net.cpp:157] Top shape: 4 12 1 1 (48)
I0831 09:31:55.076038 27242 net.cpp:165] Memory required for data: 1231305184
I0831 09:31:55.076050 27242 layer_factory.hpp:77] Creating layer pool6_mbox_conf_perm
I0831 09:31:55.076063 27242 net.cpp:100] Creating Layer pool6_mbox_conf_perm
I0831 09:31:55.076072 27242 net.cpp:434] pool6_mbox_conf_perm <- pool6_mbox_conf
I0831 09:31:55.076082 27242 net.cpp:408] pool6_mbox_conf_perm -> pool6_mbox_conf_perm
I0831 09:31:55.076222 27242 net.cpp:150] Setting up pool6_mbox_conf_perm
I0831 09:31:55.076237 27242 net.cpp:157] Top shape: 4 1 1 12 (48)
I0831 09:31:55.076243 27242 net.cpp:165] Memory required for data: 1231305376
I0831 09:31:55.076251 27242 layer_factory.hpp:77] Creating layer pool6_mbox_conf_flat
I0831 09:31:55.076262 27242 net.cpp:100] Creating Layer pool6_mbox_conf_flat
I0831 09:31:55.076270 27242 net.cpp:434] pool6_mbox_conf_flat <- pool6_mbox_conf_perm
I0831 09:31:55.076283 27242 net.cpp:408] pool6_mbox_conf_flat -> pool6_mbox_conf_flat
I0831 09:31:55.076328 27242 net.cpp:150] Setting up pool6_mbox_conf_flat
I0831 09:31:55.076340 27242 net.cpp:157] Top shape: 4 12 (48)
I0831 09:31:55.076347 27242 net.cpp:165] Memory required for data: 1231305568
I0831 09:31:55.076354 27242 layer_factory.hpp:77] Creating layer pool6_mbox_priorbox
I0831 09:31:55.076365 27242 net.cpp:100] Creating Layer pool6_mbox_priorbox
I0831 09:31:55.076373 27242 net.cpp:434] pool6_mbox_priorbox <- pool6_pool6_0_split_2
I0831 09:31:55.076382 27242 net.cpp:434] pool6_mbox_priorbox <- data_data_0_split_6
I0831 09:31:55.076397 27242 net.cpp:408] pool6_mbox_priorbox -> pool6_mbox_priorbox
I0831 09:31:55.076445 27242 net.cpp:150] Setting up pool6_mbox_priorbox
I0831 09:31:55.076460 27242 net.cpp:157] Top shape: 1 2 24 (48)
I0831 09:31:55.076467 27242 net.cpp:165] Memory required for data: 1231305760
I0831 09:31:55.076473 27242 layer_factory.hpp:77] Creating layer mbox_loc
I0831 09:31:55.076484 27242 net.cpp:100] Creating Layer mbox_loc
I0831 09:31:55.076493 27242 net.cpp:434] mbox_loc <- res4b_relu_mbox_loc_flat
I0831 09:31:55.076501 27242 net.cpp:434] mbox_loc <- res5b_relu_mbox_loc_flat
I0831 09:31:55.076511 27242 net.cpp:434] mbox_loc <- conv7_2_mbox_loc_flat
I0831 09:31:55.076521 27242 net.cpp:434] mbox_loc <- conv8_2_mbox_loc_flat
I0831 09:31:55.076530 27242 net.cpp:434] mbox_loc <- conv9_2_mbox_loc_flat
I0831 09:31:55.076540 27242 net.cpp:434] mbox_loc <- pool6_mbox_loc_flat
I0831 09:31:55.076555 27242 net.cpp:408] mbox_loc -> mbox_loc
I0831 09:31:55.076602 27242 net.cpp:150] Setting up mbox_loc
I0831 09:31:55.076637 27242 net.cpp:157] Top shape: 4 24568 (98272)
I0831 09:31:55.076647 27242 net.cpp:165] Memory required for data: 1231698848
I0831 09:31:55.076653 27242 layer_factory.hpp:77] Creating layer mbox_conf
I0831 09:31:55.076665 27242 net.cpp:100] Creating Layer mbox_conf
I0831 09:31:55.076673 27242 net.cpp:434] mbox_conf <- res4b_relu_mbox_conf_flat
I0831 09:31:55.076685 27242 net.cpp:434] mbox_conf <- res5b_relu_mbox_conf_flat
I0831 09:31:55.076694 27242 net.cpp:434] mbox_conf <- conv7_2_mbox_conf_flat
I0831 09:31:55.076704 27242 net.cpp:434] mbox_conf <- conv8_2_mbox_conf_flat
I0831 09:31:55.076712 27242 net.cpp:434] mbox_conf <- conv9_2_mbox_conf_flat
I0831 09:31:55.076721 27242 net.cpp:434] mbox_conf <- pool6_mbox_conf_flat
I0831 09:31:55.076736 27242 net.cpp:408] mbox_conf -> mbox_conf
I0831 09:31:55.076781 27242 net.cpp:150] Setting up mbox_conf
I0831 09:31:55.076795 27242 net.cpp:157] Top shape: 4 12284 (49136)
I0831 09:31:55.076802 27242 net.cpp:165] Memory required for data: 1231895392
I0831 09:31:55.076808 27242 layer_factory.hpp:77] Creating layer mbox_priorbox
I0831 09:31:55.076818 27242 net.cpp:100] Creating Layer mbox_priorbox
I0831 09:31:55.076828 27242 net.cpp:434] mbox_priorbox <- res4b_relu_mbox_priorbox
I0831 09:31:55.076838 27242 net.cpp:434] mbox_priorbox <- res5b_relu_mbox_priorbox
I0831 09:31:55.076848 27242 net.cpp:434] mbox_priorbox <- conv7_2_mbox_priorbox
I0831 09:31:55.076856 27242 net.cpp:434] mbox_priorbox <- conv8_2_mbox_priorbox
I0831 09:31:55.076864 27242 net.cpp:434] mbox_priorbox <- conv9_2_mbox_priorbox
I0831 09:31:55.076874 27242 net.cpp:434] mbox_priorbox <- pool6_mbox_priorbox
I0831 09:31:55.076889 27242 net.cpp:408] mbox_priorbox -> mbox_priorbox
I0831 09:31:55.076966 27242 net.cpp:150] Setting up mbox_priorbox
I0831 09:31:55.076982 27242 net.cpp:157] Top shape: 1 2 24568 (49136)
I0831 09:31:55.076989 27242 net.cpp:165] Memory required for data: 1232091936
I0831 09:31:55.076995 27242 layer_factory.hpp:77] Creating layer mbox_conf_reshape
I0831 09:31:55.077009 27242 net.cpp:100] Creating Layer mbox_conf_reshape
I0831 09:31:55.077018 27242 net.cpp:434] mbox_conf_reshape <- mbox_conf
I0831 09:31:55.077028 27242 net.cpp:408] mbox_conf_reshape -> mbox_conf_reshape
I0831 09:31:55.077085 27242 net.cpp:150] Setting up mbox_conf_reshape
I0831 09:31:55.077101 27242 net.cpp:157] Top shape: 4 6142 2 (49136)
I0831 09:31:55.077108 27242 net.cpp:165] Memory required for data: 1232288480
I0831 09:31:55.077114 27242 layer_factory.hpp:77] Creating layer mbox_conf_softmax
I0831 09:31:55.077126 27242 net.cpp:100] Creating Layer mbox_conf_softmax
I0831 09:31:55.077134 27242 net.cpp:434] mbox_conf_softmax <- mbox_conf_reshape
I0831 09:31:55.077145 27242 net.cpp:408] mbox_conf_softmax -> mbox_conf_softmax
I0831 09:31:55.077237 27242 net.cpp:150] Setting up mbox_conf_softmax
I0831 09:31:55.077253 27242 net.cpp:157] Top shape: 4 6142 2 (49136)
I0831 09:31:55.077260 27242 net.cpp:165] Memory required for data: 1232485024
I0831 09:31:55.077265 27242 layer_factory.hpp:77] Creating layer mbox_conf_flatten
I0831 09:31:55.077280 27242 net.cpp:100] Creating Layer mbox_conf_flatten
I0831 09:31:55.077286 27242 net.cpp:434] mbox_conf_flatten <- mbox_conf_softmax
I0831 09:31:55.077296 27242 net.cpp:408] mbox_conf_flatten -> mbox_conf_flatten
I0831 09:31:55.077333 27242 net.cpp:150] Setting up mbox_conf_flatten
I0831 09:31:55.077347 27242 net.cpp:157] Top shape: 4 12284 (49136)
I0831 09:31:55.077353 27242 net.cpp:165] Memory required for data: 1232681568
I0831 09:31:55.077358 27242 layer_factory.hpp:77] Creating layer detection_out
I0831 09:31:55.077392 27242 net.cpp:100] Creating Layer detection_out
I0831 09:31:55.077402 27242 net.cpp:434] detection_out <- mbox_loc
I0831 09:31:55.077410 27242 net.cpp:434] detection_out <- mbox_conf_flatten
I0831 09:31:55.077417 27242 net.cpp:434] detection_out <- mbox_priorbox
I0831 09:31:55.077431 27242 net.cpp:408] detection_out -> detection_out
W0831 09:31:55.078114 27242 detection_output_layer.cpp:49] Failed to create directory: /mnt/mfs3/zhongchong/task-face/result
I0831 09:31:55.201692 27242 net.cpp:150] Setting up detection_out
I0831 09:31:55.201771 27242 net.cpp:157] Top shape: 1 1 1 7 (7)
I0831 09:31:55.201778 27242 net.cpp:165] Memory required for data: 1232681596
I0831 09:31:55.201797 27242 layer_factory.hpp:77] Creating layer detection_eval
I0831 09:31:55.201840 27242 net.cpp:100] Creating Layer detection_eval
I0831 09:31:55.201867 27242 net.cpp:434] detection_eval <- detection_out
I0831 09:31:55.201898 27242 net.cpp:434] detection_eval <- label
I0831 09:31:55.201928 27242 net.cpp:408] detection_eval -> detection_eval
I0831 09:31:55.206353 27242 net.cpp:150] Setting up detection_eval
I0831 09:31:55.206377 27242 net.cpp:157] Top shape: 1 1 2 5 (10)
I0831 09:31:55.206384 27242 net.cpp:165] Memory required for data: 1232681636
I0831 09:31:55.206393 27242 net.cpp:228] detection_eval does not need backward computation.
I0831 09:31:55.206404 27242 net.cpp:228] detection_out does not need backward computation.
I0831 09:31:55.206418 27242 net.cpp:228] mbox_conf_flatten does not need backward computation.
I0831 09:31:55.206432 27242 net.cpp:228] mbox_conf_softmax does not need backward computation.
…
